set2graph_model_best.pth (torch, 207388 bytes, 7 tensors)

set_to_set.0.weight f4 [128, 10]
000000 da 23 7d 3e 61 e6 bd 3e 74 44 52 3e fe 11 fd bd
       0.24720708 0.37089828 0.20533925 -0.12356947
000010 90 59 47 3e 1e d8 b7 be 63 77 4d bc 21 ff 12 be
       0.19467759 -0.35907072 -0.012540671 -0.14355136
000020 ef 1a 59 bd 29 44 34 bd 24 7f 15 bf d3 b8 2d bf
       -0.0530042 -0.044010315 -0.58397126 -0.67860144
000030 56 31 09 be 1a 81 1a 3e ed c2 40 be 89 7f 07 3e
       -0.13397726 0.15088311 -0.18824358 0.13232245
000040 af 5b 71 be 4e c8 f3 bd 4c 5c 85 3e 40 44 e4 3d
       -0.23570131 -0.119034395 0.2604698 0.1114583
000050 c3 ce 07 3f 69 b5 c1 bd 5a 7f f0 bb 05 97 5f be
       0.5304987 -0.09458429 -0.0073394002 -0.21834953
000060 eb 29 2f 3c 10 0c 5c 3c c6 dc 81 bd f1 95 1c be
       0.010691146 0.01343061 -0.06340937 -0.15291573
000070 e4 21 25 3c e9 e8 9e 3d 14 32 fd be 7b d1 b1 3e
       0.010078881 0.07759268 -0.4945227 0.34730133
000080 a6 ed 8a 3e fc a0 07 3e 83 b3 ca be 6d d9 a9 3c
       0.27134436 0.13245004 -0.39590082 0.02073356
000090 35 60 a7 3e bb 5f 98 be 6b 1b e9 3c f8 b3 7c be
       0.32690588 -0.29760537 0.028455457 -0.24678028
0000a0 73 55 08 bf 9c 68 c4 be c4 25 99 3e 92 51 6b 3e
       -0.53255385 -0.3836106 0.29911625 0.22980335
0000b0 9b ca a1 be 2d 50 4a 3e 19 b8 84 be 88 ed a8 bb
       -0.31599888 0.19757147 -0.25921705 -0.005155269
0000c0 19 e4 f3 bc 36 f4 7e be 74 30 e6 3e 3f d3 7c 3f
       -0.029771851 -0.24897847 0.44958842 0.98759836
0000d0 88 a6 6a bd 19 93 10 3d 40 1e 15 3d 8a 38 be 3d
       -0.057287723 0.035296533 0.0364058 0.09288128
0000e0 3c ba 0e be fd 11 1c 3d 02 07 0e 3e 80 b8 67 3e
       -0.1393823 0.038103092 0.13869861 0.22628975
0000f0 c1 20 d3 3e a4 ed 27 3f e3 9d 26 3e a5 3f 0c bd
       0.41235927 0.65596986 0.16271167 -0.034240384
000100 2e a1 72 3d b4 3c 2e 3c ef fb 8f be 09 6f ce 3d
       0.059235744 0.01063459 -0.28121898 0.10079772
000110 f9 06 9c 3e 80 0b 9d bd ad bd dd 3e c2 b7 32 3f
       0.3047407 -0.07668209 0.43308774 0.6981164
000120 88 79 48 3e 95 fc a3 bd 4b 43 84 be 17 b7 1f 3e
       0.1957761 -0.080071606 -0.2583259 0.15597187
000130 5e 7d 3a 3e c3 f1 a2 bd a5 c5 f8 bd 69 b0 23 be
       0.18211886 -0.07956269 -0.12147073 -0.15985264
000140 af e6 e2 be 7f f6 27 be f0 f5 37 3e a4 e0 72 3e
       -0.44316623 -0.16402625 0.17964911 0.23718506
000150 d0 6b c3 be 35 f8 83 3c 8e b9 ab be 88 40 67 be
       -0.38168192 0.016109565 -0.33540004 -0.2258321
000160 86 d7 77 3e 3c 4b a6 3d f8 17 9a bd 08 79 0f bf
       0.2420331 0.081198186 -0.07524103 -0.56044054
000170 4b d8 08 3d a0 c9 85 be 12 c3 d3 be 36 89 41 be
       0.033409398 -0.2613039 -0.41359764 -0.18899998
000180 04 a5 d2 3b b2 14 49 be 25 dc e9 3b e9 7d 69 be
       0.006428363 -0.19636801 0.007136839 -0.22801937
000190 20 e4 84 be ca 87 30 3f 6e dc 9a 3e 87 f5 a3 bd
       -0.25955296 0.689572 0.302463 -0.08005815
0001a0 c1 68 8f be e1 b6 b9 3c 73 25 7f be 62 cd a1 3c
       -0.28009608 0.022670211 -0.2491663 0.019751254
0001b0 af 0e 85 3e 91 95 9b bb ea 97 0f bf 7d 16 2e bf
       0.25987765 -0.0047480543 -0.5609118 -0.68003064
0001c0 28 a6 dc 3d 3d 28 59 be 65 bb f5 bd 0b 7f 01 3d
       0.10773879 -0.21206756 -0.11998633 0.0316153
0001d0 11 e0 4f be 63 92 44 be 1e 59 6b 3e b4 f4 d3 bd
       -0.20300318 -0.19196467 0.22983214 -0.10349408
0001e0 e2 72 22 3e 18 46 d3 3d c8 10 93 be da a7 3a be
       0.15864137 0.10316104 -0.2872374 -0.18228093
0001f0 a6 b5 42 be 1f 42 21 be e7 c5 63 3e 43 6d 46 3e
       -0.19014606 -0.1574788 0.22243463 0.19377618
000200 23 9a ef 3d 47 62 0f be df d6 20 3f 4d 3a 0a bf
       0.11699321 -0.14002334 0.6282787 -0.5399521
000210 be 85 da 3d 2f 65 6f bd 07 e7 8c 3e cc e0 c3 bd
       0.106700405 -0.058446106 0.2752001 -0.09564361
000220 fd dd e3 3d a5 da 1d 3c dc 8f 35 3e 08 fc 82 be
       0.11126325 0.009634648 0.17730659 -0.2558291
000230 9d 06 09 bf 35 7f 23 bf 4e ed b6 bd e5 8f c0 3d
       -0.53525716 -0.6386598 -0.08931981 0.09402446
000240 af 5d 86 be 77 dd 2c 3e fb a8 70 3e 8c bb 13 be
       -0.2624335 0.16881357 0.23501961 -0.14427012
000250 d9 7f 87 be ae 8c 50 3e 14 60 1f 3f 19 4b 00 3f
       -0.26464728 0.20366165 0.6225598 0.5011459
000260 76 82 7f 3e dd fc 79 bc 8e 8e 97 3e ce 28 e7 3c
       0.2495211 -0.015258041 0.29600948 0.0282177
000270 5d d3 75 3e c8 4c 81 3d e7 3e b0 3b 35 fc 6c 3e
       0.2400641 0.06313473 0.0053785923 0.23143084
000280 03 e5 52 bf 3e 10 60 bf dd 79 99 bc 86 df 9f bd
       -0.82380694 -0.87524784 -0.018734867 -0.078063056
000290 16 2a 1a 3e 52 2c 06 bd b2 52 4c be 85 19 d5 3c
       0.15055117 -0.03275711 -0.19953421 0.026013145
0002a0 a4 2a 0d 3d d5 c0 21 3e b5 49 fc be 58 e1 37 3e
       0.034464493 0.15796216 -0.49274984 0.17957056
0002b0 ea d5 40 3e c7 ca 1a 3e 30 a2 23 3e 98 33 bd bc
       0.18831602 0.15116416 0.15979838 -0.02309589
0002c0 5b 7d 90 be eb e6 af be b1 4a 44 be f2 80 15 3b
       -0.2822064 -0.34355864 -0.19169118 0.0022812453
0002d0 67 43 1d bf 8a 0e 0e bf d9 04 26 be ed 47 a2 ba
       -0.6143097 -0.55490935 -0.16212787 -0.0012381055
0002e0 9a 96 98 be fa a9 3a 3e e8 b8 8e 3d 76 3f 07 3e
       -0.298024 0.18228903 0.06968862 0.13207802
0002f0 3a 3d 75 be 32 73 09 be b4 f1 6a 3e fb d2 3c 3f
       -0.23949137 -0.1342285 0.22943765 0.7375943
000300 e4 09 93 be 4a ea 91 3d 93 29 99 3d a9 00 9f 3e
       -0.28718483 0.07124765 0.07478633 0.3105519
000310 4f 67 ad bd 59 74 ff 3d ec d6 cc bd e8 9b 68 3d
       -0.0846697 0.124733634 -0.100019306 0.05678931
000320 fb 8b c3 be de 28 a2 3e 9a 5d 8b 3e b3 ba b2 3b
       -0.38192734 0.31671804 0.2721985 0.005454385
000330 f3 fc 95 bd 3e 9c d9 3c b7 df d1 bc 41 d3 89 3e
       -0.07323637 0.02656376 -0.02561937 0.26918986
000340 20 e2 80 3d ac 52 c5 be 58 61 35 3f 4b 94 2d 3f
       0.0629313 -0.38539636 0.7085166 0.678044
000350 27 a1 03 be 0f 0a 44 be cd 79 73 3c d0 c9 68 3e
       -0.12854443 -0.19144462 0.014860583 0.22733235
000360 4d 6f 47 be bd 1b 23 3c 48 d0 4a 3d 0d 7c 45 be
       -0.19476052 0.009955344 0.04951504 -0.19285603
000370 f9 d0 09 3f fe 7c 33 bf 23 87 a6 bd 85 e7 8b 3e
       0.5383449 -0.701126 -0.08131244 0.27325073
000380 70 11 98 be ab 6c 74 3d f9 5e 9e 3c 48 13 a8 3d
       -0.29700804 0.059673946 0.019332396 0.082068026
000390 fe 1e 20 be 1d e7 51 bd 5e 1f 08 bf a3 ee 4f bf
       -0.15636823 -0.051245797 -0.5317286 -0.81223506
0003a0 ed ae 1f 3e d2 1e 47 be 62 16 73 be 98 7b 85 bb
       0.15594073 -0.19445351 -0.23739007 -0.0040735714
0003b0 0d 58 ca 3d 60 17 80 3e 7e eb 71 bd 33 db 40 be
       0.098800756 0.25017834 -0.059062473 -0.18833618
0003c0 c7 a3 d4 3e fb 68 4f 3f d9 dd 8f be 03 e8 64 3e
       0.41531202 0.8101956 -0.28098944 0.2235413
0003d0 c7 1b 81 3e 4f b4 2d be 18 4c 12 be ba 02 05 3e
       0.25216505 -0.16963314 -0.1428684 0.12989321
0003e0 23 1f 70 3d c6 22 61 3e 69 c9 63 be ba 43 a9 be
       0.058623444 0.21985921 -0.222448 -0.33059484
0003f0 ca 10 95 be 3c 06 0e be 3e a0 ef 3d 2d fb 47 3e
       -0.29114372 -0.13869566 0.11700486 0.1952941

set_to_set.0.bias f4 [128]
000000 70 d7 af bd 84 0a c5 3d 8b 7f 64 be 83 f6 8e be
       -0.08586013 0.09621146 -0.22314279 -0.2792245
000010 e8 0d 50 3e 54 e4 4a 3e ba 56 3b be 83 3f 0c 3d
       0.20317805 0.19813663 -0.18294802 0.034240257
000020 b8 96 17 be 42 fa 97 3e f6 64 c5 bd 9d 0f 8c 3e
       -0.14803588 0.2968312 -0.096383974 0.27355662
000030 50 28 03 bd a6 4f a7 bd eb d9 61 3e 9f 18 6f 3e
       -0.032020867 -0.081694886 0.22055785 0.23349236
000040 9a bc 50 3e b0 c2 82 be 79 e0 84 bd 60 21 82 3e
       0.20384446 -0.2553916 -0.06488127 0.25416088
000050 6a 49 b0 bd e5 90 94 3e e8 9b 69 be 13 64 05 3e
       -0.086077526 0.29016796 -0.2281338 0.13026457
000060 bc ee 2a be 47 de 88 be e8 c3 8d 3d 17 fe ad be
       -0.16692632 -0.26732084 0.06922132 -0.33982918
000070 6e b2 4c 3e 05 18 04 be 56 da 61 be 16 dd 12 be
       0.1998994 -0.12899788 -0.22055945 -0.1434215
000080 d0 67 95 3d 02 af 7f bd 48 21 90 bc 8d 07 a7 3e
       0.07295191 -0.06242276 -0.017593995 0.32622948
000090 5c e9 e2 3d 50 06 78 3e ad 63 44 be e2 4f a7 3e
       0.11079666 0.24221158 -0.19178648 0.32678133
0000a0 21 85 ab 3c 82 cc 7e bd 0c 1f 10 bd f4 9a 11 3e
       0.020937504 -0.062206753 -0.03518586 0.14219266
0000b0 22 cd 0e 3e 96 5e 2b 3e 09 80 ae bd 9d d1 ca 3a
       0.1394544 0.167353 -0.085205145 0.0015473847
0000c0 f2 3c a0 3d 34 3f 90 be c1 c1 03 be 0d dd 1f be
       0.078241244 -0.2817322 -0.1286688 -0.15611668
0000d0 05 ab 6e 3e d7 a4 6c be 06 52 39 be 1e 71 e6 3d
       0.23307426 -0.23109756 -0.18097696 0.11252044
0000e0 9c 0f f9 bd 29 60 83 bd 7a af 9a 3e 43 ca 00 3e
       -0.121611804 -0.064148255 0.30212003 0.12577157
0000f0 85 7a 04 be e5 26 24 be 33 b6 99 be c3 6a 70 be
       -0.12937362 -0.16030462 -0.3002182 -0.23478226
000100 da 6c 29 3d 0c e9 51 be 35 7c d0 bd c3 65 01 be
       0.041363575 -0.20499057 -0.101799406 -0.12636475
000110 69 8a 38 3d 5e cc 1b 3e c3 c0 3a 3e 52 a0 0b be
       0.045053873 0.15214679 0.18237595 -0.13635376
000120 ba 98 bb 3d d1 84 0e 3e ee 7f a3 3e 3e 99 31 be
       0.0915999 0.13917853 0.3193354 -0.17343614
000130 cb c6 3d be 77 de 38 3e 83 60 fd 3c 47 73 7f be
       -0.18532865 0.18053614 0.03092981 -0.24946319
000140 f8 3c 5a 3e 3d d6 a2 bd c8 a5 2e be 11 b4 2b 3e
       0.2131232 -0.07951019 -0.17055428 0.16767909
000150 ea 2d a7 3e 6d 69 e2 bd bd f5 5a be c7 18 45 3e
       0.32652217 -0.110552646 -0.21382804 0.19247733
000160 b2 59 13 be 9b e2 23 3e 9b 38 99 be c4 e6 72 3d
       -0.14389685 0.16004412 -0.29926 0.059302106
000170 7a 26 93 be 0f 96 b9 3d 07 5c 51 bd 5b 91 26 3e
       -0.28740293 0.090618245 -0.051113155 0.16266386
000180 c3 d2 f0 bd 5b 82 41 bb 9e 00 20 be 75 26 1e be
       -0.117589496 -0.002952716 -0.15625235 -0.15444358
000190 df 62 d5 bd c3 39 58 3e 5c 0c 87 be 67 43 34 3e
       -0.10419249 0.21115784 -0.26376617 0.17603837
0001a0 84 c3 4b bd 94 80 6f bd 73 31 9f 3e 90 a1 85 3e
       -0.049747005 -0.05847223 0.31092414 0.26099825
0001b0 de 5f 9c bd 9c 27 03 3e 1a 9d 90 3e 71 6e 7e 3e
       -0.07635473 0.12808079 0.2824486 0.24846818
0001c0 01 65 cf bd bc 68 47 be e7 b3 05 3e 02 34 4c 3d
       -0.10126687 -0.19473547 0.13056909 0.049854286
0001d0 0b 25 4c 3e f9 3b 46 3e 54 25 6b 3d 1e 83 8f 3d
       0.19936006 0.19358815 0.057408646 0.070074305
0001e0 4f f5 22 3e e1 4d fa 3b 48 f2 30 be 98 26 65 be
       0.1591389 0.0076386784 -0.17279923 -0.22378004
0001f0 01 fe cd 3d 77 99 f9 3b 2d 6f 14 3d 5a cc dc 39
       0.10058213 0.0076171714 0.036238838 0.00042113924

set_to_set.2.weight f4 [128, 128]
000000 cc ae a6 bc 9a 05 84 bd 9c 0f c0 3c 29 cd e6 3d
       -0.020347022 -0.06446381 0.023444943 0.112696
000010 93 b8 0f bd 5a bb 90 3d 6a b8 d3 3d db c0 7f 3b
       -0.035088133 0.070669845 0.103379086 0.0039024863
000020 88 31 91 bc 0b f6 a6 3b b5 ac 41 bd 71 50 25 3b
       -0.017723814 0.0050952486 -0.047283847 0.0025224949
000030 a4 93 1d bd b6 5f cd 3d 8a e8 6e 3d cd 29 0b bd
       -0.03847088 0.10028021 0.058327235 -0.03397541
000040 a8 48 98 bd ac 2c 81 3d 8b 4f 28 bd 3b 6f d6 b8
       -0.07435733 0.063073486 -0.041091483 -0.000102250335
000050 cc 76 b6 bd 3d df 38 bd 9d 5f c0 3c d5 d4 93 bc
       -0.089093775 -0.04513477 0.023483092 -0.018045822
000060 16 f7 22 3d c8 36 ad bd 53 25 b2 3c 52 67 04 bd
       0.03978642 -0.08457714 0.021746313 -0.032325096
000070 5c 2c 45 bd d3 41 a6 bd c6 a9 03 3e ab 64 2c bd
       -0.048138008 -0.08118024 0.12857732 -0.042088192
000080 b5 e9 cd bc 1e ab a6 3d 13 b7 b8 3d f0 63 42 bd
       -0.025135854 0.08138107 0.09019294 -0.04745859
000090 30 24 63 bd b7 f1 1a bd 6e 32 09 be f4 6d 11 bd
       -0.055454433 -0.037828173 -0.13398144 -0.03550525
0000a0 73 de a7 bc c8 28 24 bd 4d 47 9a 3c c0 99 24 3d
       -0.020491814 -0.040077955 0.018832827 0.04018569
0000b0 bf 54 08 bd 7d 02 a1 3d 73 72 91 bb de c2 98 3d
       -0.033283945 0.07861803 -0.0044386922 0.07459043
0000c0 b9 22 19 3e ef 5f 40 bc 77 39 0b bd 95 a6 a4 bd
       0.14954652 -0.011741622 -0.03399035 -0.080395855
0000d0 c0 df 4e 3d 65 85 f6 bd 90 1a 71 3d e3 58 b1 bd
       0.050506353 -0.12037162 0.058863223 -0.08659532
0000e0 67 bf 13 3c 69 09 c4 bd fd 7d f2 3d b2 56 06 bd
       0.009017802 -0.09572107 0.118404366 -0.032797523
0000f0 46 8b bf 3c e8 e7 43 3d 1d c3 bc bc 53 97 12 3e
       0.02338184 0.047828585 -0.023042256 0.14315538
000100 04 1f 0b 3d 2d 7e 8c 3d 2e 48 fe 3c 71 1f 8a bd
       0.033965126 0.068600036 0.031040277 -0.06744278
000110 60 8a 03 3e fc 6f 8b bd b3 d3 3d bd 61 65 3d 3c
       0.12845755 -0.06808469 -0.04634447 0.011559815
000120 8e 32 2f bc ef 3d 0b be e1 c5 ad bd 4f ff 10 3b
       -0.0106932055 -0.13597845 -0.08485008 0.0022124832
000130 f6 0f bf bd bd 8d 9f bd 4c 23 86 bb fb 61 cf bd
       -0.09329216 -0.07790706 -0.004093563 -0.1012611
000140 3f 01 ef bd 93 1d 77 bd df 42 ae bd 0a 2b 5c 3d
       -0.116701595 -0.06033094 -0.085088484 0.053751983
000150 95 28 7d 3d 9f 2b 5c bd d0 5a f2 bc 12 23 a6 bc
       0.06180628 -0.053752538 -0.029584318 -0.020280395
000160 c4 61 bc bd 80 ee af 3d 66 7c 99 3d bb df c2 bb
       -0.09198335 0.08590412 0.0749443 -0.005947081
000170 32 da 7f bc fb a8 9b 3d 89 8c a4 bd 8f bd 92 3b
       -0.015615987 0.0760059 -0.080346175 0.0044781636
000180 bc 23 64 bd 98 48 77 3d 32 8d 10 bc 7d 11 37 bd
       -0.05569814 0.060371965 -0.008822726 -0.044694412
000190 1d d4 99 bd 26 81 03 3e 5a ff dc 3d e3 20 5e bd
       -0.075111605 0.12842235 0.10790892 -0.054230582
0001a0 9d 52 46 3d d1 66 ba bd b5 ce 0a 3d a9 2a c2 bc
       0.04841863 -0.09101642 0.033888537 -0.023701983
0001b0 0b 07 1f 3e 86 47 e1 3d 00 fd d4 bd 98 ea ad bd
       0.1553003 0.1099997 -0.103998184 -0.08492011
0001c0 71 b9 f7 3d ae ad 79 3d 9c 25 7d bd 1a 3d c1 3d
       0.12095917 0.06095665 -0.061803445 0.09435482
0001d0 df 46 8e bc 11 79 94 3c bd eb 73 3d 2d d6 c5 3d
       -0.017367778 0.018124135 0.05955099 0.096599914
0001e0 09 20 77 bd fd 7e 8c 3c d0 e5 07 be 00 25 28 3d
       -0.060333285 0.017150396 -0.1327126 0.04105091
0001f0 f4 c5 cc 3d cf ab ed 3d 64 7d 4c 3d b3 2e f6 3d
       0.09998694 0.116050355 0.04992427 0.12020626
000200 8b 63 8a 3d 5d e0 d0 bd 07 fe 0b 3d 8c 40 9d 3d
       0.067572676 -0.10199044 0.034177806 0.07678327
000210 21 79 00 3d b4 6a 5a 3e e1 89 30 3e 74 85 e1 3d
       0.031365518 0.21329767 0.17240097 0.11011782
000220 1f ff c5 3d cb 1e 06 3d 32 fa 86 3d 47 2e b6 bc
       0.09667801 0.03274421 0.0659069 -0.022238864
000230 5c 87 a0 3d 6e 2f 3f bc 1c e9 da bd 22 62 5c 3d
       0.07838318 -0.011669023 -0.10688993 0.053804524
000240 ce 23 96 bd 85 10 b0 bd 08 bd e2 bd 1d 1c bf 3d
       -0.07331048 -0.08596901 -0.11071211 0.09331534
000250 82 16 42 3d e5 4a 16 3d ad 8c d7 bc 7b ab 1d be
       0.047384746 0.03669252 -0.026312197 -0.15397446
000260 91 7c b9 3d d4 e0 38 bd b2 06 0c bc 5c e1 aa 3d
       0.09056962 -0.045136288 -0.008546518 0.08343765
000270 fa 99 33 bd ca 26 3a bd 87 17 7d 3d b4 58 38 3d
       -0.043848015 -0.04544715 0.061790016 0.04500647
000280 7b 63 e2 39 d5 fe 49 3e bf cc dd 3d e1 4f cd bd
       0.00043180198 0.19726117 0.10830068 -0.10025001
000290 b8 61 91 3d ba a6 98 bd 01 6a f8 bd 7e e9 04 3e
       0.070987165 -0.074536756 -0.12129594 0.12979695
0002a0 10 03 3a bd 6e c0 15 bd ac 4d 48 bd ed f8 af 3d
       -0.045413077 -0.03656047 -0.0489022 0.08592401
0002b0 00 79 f9 bd 40 0a a2 3c cc 9a 93 bd 69 77 58 bd
       -0.12181282 0.019780278 -0.072072595 -0.052848253
0002c0 ac 13 88 bc 6e f0 9a 3d 8d 29 f2 3d 67 63 69 bd
       -0.016610943 0.075653896 0.118243314 -0.056979563
0002d0 18 71 a1 3d 44 a4 6f bd 48 bf 8a 3d d4 57 80 ba
       0.07882899 -0.058506265 0.06774765 -0.00097918
0002e0 26 b0 14 3d fe ae 0d be c0 10 07 3d 2b 03 18 be
       0.0363008 -0.13836285 0.03297496 -0.14844958
0002f0 4d f0 02 3d 62 41 0e be a4 a7 ce 3b db 5b cd 3b
       0.03196745 -0.13892129 0.0063066054 0.0062670535
000300 e6 af 06 3e d0 fd 31 be fb 00 12 3e 02 bf 9c bd
       0.13153037 -0.17381978 0.14258187 -0.07653619
000310 eb 18 7b 3c e3 fd 9f 3d bf b4 25 3e 98 df 21 3e
       0.015325765 0.07812097 0.1618223 0.1580795
000320 aa 28 81 bd 70 ee ea bc ab 30 a5 bd 32 8a 11 bd
       -0.06306584 -0.028678149 -0.08065923 -0.035532184
000330 bc 0e 1b 3d 28 c9 fe bd 09 bc 60 bd 33 eb 1d bd
       0.03785585 -0.12440711 -0.054866824 -0.03855438
000340 d2 ca f9 bd 1a b1 47 bd bf f5 5a 3d 2b 7b 94 bd
       -0.12196888 -0.04875288 0.053457018 -0.07250055
000350 24 ba 18 3d 96 ca 0e 3e 7d 59 49 bb d1 cb 57 bd
       0.037286893 0.13944468 -0.0030723505 -0.05268461
000360 f2 59 76 bd 11 4c 0c bd 19 68 45 bd 32 59 09 3e
       -0.060144372 -0.03425223 -0.04819498 0.13412932
000370 8e 7d 96 bd 3e ba b2 bd 1e eb ae 3d 6c e3 d3 3d
       -0.073481664 -0.08726929 0.08540939 0.10346112
000380 9e 18 ae 3c 00 f6 b1 bc 34 cf 1f 3d 1d 9e d3 bc
       0.021251973 -0.021723747 0.039015964 -0.02583223
000390 ff 6c e2 3d 35 37 b4 3c 31 cf 91 bd 7b c5 d2 bd
       0.110559456 0.021998981 -0.07119597 -0.10291573
0003a0 6e 26 e2 3d 8e cb 05 3b 6f 99 94 3a 98 33 fc 3d
       0.11042486 0.0020415518 0.0011337231 0.12314528
0003b0 ab 8c 21 3e 2e 88 21 3e 02 ac 07 be 09 73 4c be
       0.15776317 0.15774605 -0.1324921 -0.19965757
0003c0 ee 2a fe 3c ba 6e 60 3c 0a 3d a5 bd b5 ed 09 bb
       0.03102633 0.013698274 -0.08068283 -0.0021046225
0003d0 07 da 6d bd 7e 8a bf 3d ad 90 d5 3d 91 20 20 3d
       -0.058069255 0.09352587 0.10427985 0.039093558
0003e0 d5 5e 9a bc d8 91 c5 3c 43 a1 4f bc 39 6f b6 bc
       -0.018844048 0.024117395 -0.012672725 -0.022269832
0003f0 27 40 0b 3c e0 bb 97 3d 3d 2d 0c 3c 8a 19 5c bc
       0.008499182 0.07408881 0.0085557075 -0.013433823

set_to_set.2.bias f4 [128]
000000 93 86 8e bd 07 ca 41 bd d9 b2 96 bd 8f 9c 6f 3d
       -0.06959262 -0.04731181 -0.07358331 0.058498915
000010 cc 46 76 3d cb a8 e2 3d cf a3 3c 3d eb 16 ba 3d
       0.06012611 0.11067351 0.046054658 0.090864025
000020 7b fa 92 3d 46 fe 5f bd 4a ca 50 bd 74 2c 2a 3d
       0.071766816 -0.054685853 -0.050974168 0.0415463
000030 7d d0 fe bb 86 01 6a 3d 8e e5 d2 3d 85 90 07 be
       -0.0077763186 0.05713036 0.1029769 -0.13238724
000040 c4 f1 df 3d f1 2b 22 bd 6b 22 01 bd 53 1f 87 3d
       0.10934785 -0.039592687 -0.031526964 0.065977715
000050 dc 21 8f 3d 22 e6 51 3d d2 d8 76 bd ca fa b4 bd
       0.0698888 0.051244862 -0.06026537 -0.08836897
000060 9f ac 62 3d 9b 50 96 bd 7a b3 7e bd a2 28 e2 bd
       0.055340406 -0.07339593 -0.06218288 -0.11042906
000070 c8 ca 81 3d 6d 9b 28 3d e0 ae 82 3d d5 51 ac 3d
       0.063375056 0.04116385 0.06381011 0.08414046
000080 b1 aa 84 3d dd f2 a2 bd 1f 72 87 bc 02 16 dd bc
       0.06477869 -0.07956479 -0.01653391 -0.026988033
000090 7c c8 a1 bb b5 6e d7 3d dd 94 b5 3d 68 d1 e5 3c
       -0.0049372297 0.105191626 0.08866284 0.028053954
0000a0 c8 ea aa bd cf c4 96 bd ba 99 8b 3d 2c ef 72 bd
       -0.08345562 -0.07361757 0.068164304 -0.059310123
0000b0 a6 e6 92 bd f4 4a 47 bd e5 b0 23 bd b5 f7 dc bc
       -0.07172899 -0.048655465 -0.03996362 -0.026973585
0000c0 71 4a a6 bd 04 e2 6c 3d f5 39 cd 3c 76 2a dc bb
       -0.08119667 0.057832733 0.02505205 -0.006718929
0000d0 52 42 82 bd 04 42 a2 bd aa 16 06 3c e8 cb 26 bd
       -0.06360306 -0.07922748 0.0081841145 -0.040721804
0000e0 7b 1c 88 bd 11 ef 28 bd bd 6e 71 3d 41 d6 e5 3b
       -0.06646057 -0.041243616 0.0589435 0.0070140664
0000f0 7a fd 60 bd 32 c9 36 3d 50 9d c4 bd 2c 38 c4 bc
       -0.054929234 0.04462547 -0.096003175 -0.023952566
000100 a1 1e 0b bd bd f8 10 bd e2 8b 87 3d 4a d7 db 3d
       -0.033964757 -0.035393465 0.066184774 0.107344225
000110 ba 3f 79 bc 70 2b 82 3d 5b ea c0 3d c2 50 de bd
       -0.0152129475 0.06355941 0.094197 -0.10855247
000120 f2 d3 a9 3d af ba 79 bd a7 ed 13 3d 7d c4 26 bd
       0.082923785 -0.06096905 0.036115315 -0.04071473
000130 3f 7f 94 3c 8b 0d e3 bd 58 dd fb 3c fd 97 2a bd
       0.018127082 -0.110865675 0.030745193 -0.041648854
000140 f7 da 10 3d 8a 13 17 bd a2 fb 79 bd ba f8 21 bd
       0.03536507 -0.03688387 -0.06103099 -0.039543845
000150 f0 69 8a 3d 3d 4e 6b ba 3c 13 ba bb 39 68 ca bd
       0.06758487 -0.0008976197 -0.0056785624 -0.0988316
000160 a9 0c 8e 3d a2 a4 bb bd 6d 52 b9 3d 7d d1 a4 3c
       0.069360085 -0.091622606 0.090489246 0.020119423
000170 09 98 db bb a8 24 55 bd a1 a2 b4 b9 48 e5 30 3d
       -0.0067014736 -0.05203691 -0.00034453443 0.04318741
000180 91 06 8d bd c6 c9 99 bd 7c 13 53 bd b2 1e ae bd
       -0.06886018 -0.07509188 -0.051532254 -0.085019484
000190 0b b1 bd bd 02 69 b3 bd 70 8d b8 bc d2 50 03 3d
       -0.09262284 -0.08760263 -0.02252838 0.032059498
0001a0 45 c3 96 3d 52 40 05 3e 95 e2 13 bc 46 65 0a 3d
       0.073614635 0.13012818 -0.009026189 0.033787988
0001b0 1f 4d 09 3c 34 59 b4 bd 51 32 4b 3d c6 c2 3b 3d
       0.0083802035 -0.08806077 0.049608532 0.045840047
0001c0 93 2c ae bd 8b 74 d6 3d e5 ac 3b 3d c5 00 1c 3c
       -0.085045956 0.104714476 0.045819182 0.009521668
0001d0 09 4f ab 3b 2a 50 0f 3d 5a 64 8f bd 4f 31 79 3d
       0.0052279276 0.03498856 -0.070015624 0.06083804
0001e0 c6 0e 76 3d 48 c9 60 3d 8d 86 39 bd 41 d6 8b bd
       0.060072683 0.054879457 -0.045294333 -0.06827975
0001f0 3d 76 8d bd 2f a7 99 3d 59 85 8b bc 24 f1 1f 3d
       -0.06907318 0.07502591 -0.017031359 0.03904833

edge_classifier.0.weight f4 [128, 256]
000000 d3 95 11 3c f4 7f 6b 3d d0 04 18 bd 8b f5 8f bd
       0.0088858185 0.057495072 -0.037113965 -0.070292555
000010 ef 2e 3d bd b9 1a 95 bc b5 14 30 bc 8e 9c 05 3d
       -0.046187337 -0.018201219 -0.010747124 0.032620005
000020 b3 d4 c5 bd 26 ca 56 3d 50 08 57 3c 43 09 bb bd
       -0.0965971 0.052438878 0.01312454 -0.09132626
000030 90 fa ea 3a 17 35 1d bc de 90 ac bc 99 89 1b bd
       0.0017927457 -0.009595177 -0.021065172 -0.03797302
000040 43 11 d6 3b 5f 18 cb 3c 4f 23 3a bc c6 88 51 bd
       0.0065328195 0.024791894 -0.011360957 -0.051155828
000050 f3 72 05 bd 28 02 e3 bc f1 32 d7 bc fe ca a4 3d
       -0.032580327 -0.02771099 -0.026269408 0.0804653
000060 b1 b8 3c 3d a3 e1 d3 3d e3 c9 15 bd cf fc ff 3d
       0.046074573 0.10345771 -0.036569487 0.12499391
000070 2b 6e 73 3c 4d 26 ff 3d f7 cc 70 bd e4 bc a1 3c
       0.014857809 0.12458477 -0.05878922 0.01974339
000080 a2 cb 4c 3d 01 c3 41 bc d7 63 ca 3d a0 77 7f 3c
       0.049998887 -0.011826278 0.09882324 0.015592486
000090 3f 1d 00 be 4e cd a7 bd f3 8c 04 be 16 67 3c bc
       -0.12511156 -0.08193456 -0.12944393 -0.011499187
0000a0 8b 5e b9 3d 8c 8a 1e 3c 02 e7 6b 3c 83 4f 00 bd
       0.09051236 0.009676587 0.014398338 -0.03132583
0000b0 36 c8 0a 3d 6c 92 36 bd 2e 7a 3f bd 6a ce 08 bc
       0.033882342 -0.044573233 -0.04674738 -0.008349994
0000c0 2d 00 4c bd 24 0c 90 3d 9b 7b f9 bc 99 be 03 3d
       -0.049804855 0.07033566 -0.030454447 0.03216419
0000d0 33 70 e1 3b ac 13 88 3d 40 96 2c bd 11 38 98 bd
       0.0068798303 0.06644377 -0.042135477 -0.07432569
0000e0 ee e7 d7 3d 6a ea 96 bd 8f 6e 83 bb ed ff 93 bc
       0.10542284 -0.0736893 -0.0040109823 -0.01806637
0000f0 fb fd ef 3d 99 b1 ab bc e8 33 bb 3d bf c6 b9 3d
       0.11718365 -0.020958709 0.0914076 0.09071111
000100 3b b7 4a 3c 08 76 58 3d 44 34 b1 bc 1e 65 f1 3c
       0.012372787 0.05284694 -0.021631368 0.029467162
000110 9e 23 9f 3d 3a a9 02 3c d2 bc 1e be 11 a9 90 bc
       0.07770465 0.007974917 -0.15501717 -0.017658742
000120 d5 e0 38 3c ad a6 f3 3d 80 4f e2 bd 98 21 33 bc
       0.011284073 0.11897025 -0.1105032 -0.010933302
000130 3a d6 41 bd 28 e1 2a 3d 76 51 21 3d 6a 2d 21 3e
       -0.047323443 0.041718632 0.039384328 0.1573998
000140 52 25 20 bd 6c 58 7d 3d dd 03 fa 3c b3 59 23 bd
       -0.03909809 0.061851904 0.03051942 -0.039880466
000150 90 c1 9d bd 40 ee 47 3d 5e eb 86 bc f9 3c 84 3d
       -0.07702935 0.048811197 -0.016469654 0.06456942
000160 95 87 fb bc 2e c0 b1 3d a1 35 93 3d 34 a4 08 3e
       -0.030704299 0.086792335 0.07187963 0.13343889
000170 bb f9 ea bd 81 1d be bb 88 fe b4 bc 94 08 d2 3b
       -0.114734136 -0.005801857 -0.022094026 0.006409714
000180 8a 11 47 3d 47 c7 18 bd 59 d9 50 3d 32 11 43 3d
       0.04860071 -0.03729942 0.05098853 0.04762382
000190 a8 b5 27 bc 22 2d cf 3d 50 c8 1b 3d cd 7f b0 bc
       -0.010236181 0.1011603 0.03803283 -0.021545315
0001a0 57 0c 04 bc d5 8d ce 3c a9 41 58 bd 91 2b 9e 3d
       -0.008059583 0.025214115 -0.052796993 0.077231534
0001b0 0b 4b cc bd f5 b2 9a 3d c8 80 ab 3d 84 31 42 bd
       -0.09975251 0.075536646 0.083741724 -0.047410503
0001c0 49 4b 5e 3d e5 b9 c6 bd 7e 3e d4 3c f1 45 f7 bd
       0.054271016 -0.09703425 0.025908705 -0.12073887
0001d0 b2 7f 93 3d b7 8f f4 bd 24 c1 23 be 80 8b 7c 3d
       0.0720209 -0.11941474 -0.15991646 0.061656475
0001e0 9c 66 fd bd 8d c9 45 3c d6 33 86 bd 8d a7 83 3d
       -0.12373087 0.012071979 -0.06552856 0.06428442
0001f0 08 0a 3b bc bf a0 a5 bd 6b 41 a4 bd e8 22 46 bd
       -0.011415966 -0.080873005 -0.0802029 -0.048373133
000200 c1 fa bd bb 59 1a 2f 3e 7d ff 38 bd 82 25 58 3d
       -0.0057977145 0.17099895 -0.045165528 0.052770145
000210 2e e8 2d 3c ba b8 29 3d 44 57 86 3c 4d 42 8e bc
       0.010614438 0.041435935 0.016399033 -0.017365599
000220 50 fe 0c bd 09 60 4b bd a9 a2 ab 3c d0 b8 9f bb
       -0.03442222 -0.049652133 0.020951586 -0.0048743263
000230 6b 47 78 bd 6c 62 bb 3d 61 d6 1c bc ab 96 7e bc
       -0.060614984 0.09149632 -0.009572596 -0.015538852
000240 e8 66 98 bc 07 6d 92 3d 98 07 85 bd a1 0a 72 3d
       -0.018603757 0.071497016 -0.06495589 0.059092168
000250 c9 50 02 3d fd ff 2c 3d 0c 6d 1a 3d a0 df 08 3e
       0.031815324 0.042236317 0.03770165 0.13366556
000260 c5 c8 e1 bd f5 c9 04 3e 81 ee 00 bd c4 18 41 3d
       -0.11024622 0.12967665 -0.031477455 0.04714276
000270 f0 a7 c4 bd 0b 04 31 3e 1a 17 26 be 86 e5 14 be
       -0.09602344 0.17286699 -0.1621975 -0.14540681
000280 fe 69 28 3d 46 ee 98 bd 32 3e 91 3d 1d b7 48 3d
       0.041116707 -0.07467322 0.07091941 0.049002755
000290 70 2b 0e be db 77 70 3d 37 46 b5 3c 5b f1 76 bb
       -0.13883758 0.058708053 0.022128208 -0.003768048
0002a0 5a 71 45 3d 27 63 b5 3d 8d ad 0d 3d 8b 57 cc bc
       0.048203804 0.088568024 0.03458934 -0.024944087
0002b0 bf 9d 87 3b d4 3c 8c bd a5 df 6c 3c 93 1f 76 bd
       0.004138678 -0.068475395 0.014457618 -0.060088705
0002c0 28 6f cf bb f6 dc de bc ca 51 86 bd 9a 18 37 3d
       -0.0063303895 -0.027204972 -0.06558569 0.044701196
0002d0 10 df 53 3d dc eb 6e bd f4 fa 58 bd 95 fe 43 bd
       0.0517264 -0.0583304 -0.052973703 -0.04785021
0002e0 7a 95 c9 bb 07 0b a7 bc ea b6 d6 bb c8 79 93 3c
       -0.006151852 -0.020391 -0.006552567 0.018002406
0002f0 2a 52 bf 3d b9 75 ce bd bb ce c8 3d 9a 57 a5 3d
       0.093418434 -0.100810476 0.09805056 0.08073349
000300 46 3e 8b bd 40 13 ef 3a 92 c8 1e 3d f5 bf d6 bc
       -0.06798987 0.001823999 0.038765498 -0.02621458
000310 12 0c 3a bd e3 9c 0e be 6c b4 75 3c 55 6d 87 bc
       -0.045421667 -0.13927035 0.014996629 -0.016531626
000320 ea 70 dd bb ec 3c fb 3c 04 3b 7d bd 8a 40 67 bc
       -0.006757845 0.030668698 -0.06182386 -0.014114508
000330 dc 3c e8 bd c7 1b 22 3e ac e2 8b 3d d3 76 0c 3c
       -0.11339733 0.15830909 0.068303436 0.008573252
000340 24 0f e1 bd 59 58 0f 3c ad 14 fb 3c b8 29 f8 bc
       -0.10989216 0.008749091 0.030649507 -0.03029333
000350 67 9d 9f 3c 38 b9 99 3d 8b 75 13 3d 1c e9 5f bd
       0.019484235 0.07506031 0.03600077 -0.05466567
000360 a1 8f 07 bd ff 42 9a 3c 88 03 1b 3d 08 b4 4b 3d
       -0.03309596 0.018830774 0.037845165 0.049732238
000370 e2 41 d0 bb 5c b1 a4 bd ca e0 3b 3d ae 88 e5 bc
       -0.00635551 -0.08041641 0.045868672 -0.028019276
000380 4f b9 47 3d 72 a3 d0 bd 81 11 3d 3b 85 07 04 3e
       0.04876071 -0.10187425 0.0028849544 0.12893493
000390 2f 95 a5 3c 6c 64 62 bd 99 58 61 bd 24 c4 a7 3c
       0.020212738 -0.05527155 -0.055016134 0.02047927
0003a0 90 4b f8 3b 75 cd 60 bd 74 a6 da ba 0e ed ec 3d
       0.007577367 -0.05488344 -0.0016681687 0.11568652
0003b0 44 f4 2b be 6b 03 32 3d 3b e2 a4 bc c0 7a 2d bd
       -0.16792399 0.04346029 -0.020127406 -0.04235339
0003c0 00 dd 69 3d af 24 36 be 8c a9 0f be d8 4a 3f bd
       0.057095528 -0.17787431 -0.14029521 -0.046702236
0003d0 4f eb c4 3c 30 c0 ba bd f4 ae ac bd fe 00 18 bd
       0.024037985 -0.09118688 -0.08431807 -0.03711032
0003e0 94 7e b8 3b 66 31 a1 3d c1 04 37 3d ff 20 e7 bc
       0.0056303237 0.0787075 0.044682268 -0.028213976
0003f0 fd 70 7e 3c 00 4e c4 bc c0 14 c9 bb 8d e8 73 3d
       0.015529868 -0.023962975 -0.006136507 0.05954795

edge_classifier.0.bias f4 [128]
000000 55 d2 0d bd 52 f9 1d bd 73 fa 64 3d 68 85 35 bd
       -0.034624416 -0.03856785 0.05590291 -0.04431668
000010 d1 20 95 bd 00 6a 8b bd 2c 10 41 bd 2c 09 de bc
       -0.0728165 -0.06807327 -0.047134563 -0.027103983
000020 b6 94 b2 bc ba 82 da 3c 0f d5 31 3b 7d 6e 4f bb
       -0.021799427 0.026673663 0.002713505 -0.003165155
000030 62 9b a4 bc f4 04 0e 3d 54 16 a0 3d 8d b7 36 3d
       -0.020093624 0.034672692 0.07816759 0.04460864
000040 8e da 90 bd d9 de ad 3c 9d 7b 08 3d 03 fd a5 bc
       -0.07072936 0.021224426 0.03332101 -0.020262247
000050 25 f2 16 bd 67 5d 94 3d 67 4c 3c bd 25 dd cb bc
       -0.03685202 0.072443776 -0.0459713 -0.024885723
000060 cd ed 98 3c d6 90 07 3d fb 59 43 3c 40 ba 57 bc
       0.01866808 0.03309711 0.0119233085 -0.013166964
000070 69 63 34 3d 36 53 4a bc da 64 6c 3d e5 4a 86 3d
       0.044040117 -0.012348941 0.057713367 0.06557254
000080 0e a1 ae bd d8 38 6d bd 60 29 d4 3c 58 29 0b 3d
       -0.085268125 -0.05791554 0.025898635 0.033974975
000090 db 22 2a 3b 47 4e 0b 39 16 75 b3 be 0d ff e0 bc
       0.0025960717 0.00013285234 -0.35050267 -0.027465368
0000a0 7b b3 b7 3c 66 0d 35 bd 51 25 a6 be d8 e6 89 3c
       0.02242445 -0.04420223 -0.32450345 0.016833708
0000b0 25 0f 13 3d 20 fc 6a bc e2 e5 bf 3b fb 93 bc bd
       0.035903115 -0.014342338 0.0058562616 -0.092079125
0000c0 e9 68 d7 bc 38 f2 50 3c ff e8 15 bd 0d 6b 13 3c
       -0.026295142 0.012753062 -0.036599156 0.008997691
0000d0 f9 42 7c 3c e3 ae a6 bd 90 4b 89 3c 65 92 42 bc
       0.015396827 -0.08138826 0.016759664 -0.0118757235
0000e0 50 07 66 3d 84 04 a9 3b ed 84 f1 bc 62 7f cb 3c
       0.056159317 0.005158009 -0.02948233 0.024841014
0000f0 ff 61 07 3d 4c 82 5b bc 1f 2d 31 3d ab ef 3f 3d
       0.03305244 -0.013397764 0.04325592 0.046859425
000100 f3 5e 6a bd e5 66 30 3c 14 71 06 3d 73 52 b0 bd
       -0.057219457 0.0107667195 0.032822683 -0.08609476
000110 11 fd 2e bc 8b 8d d0 3c 0a 79 14 3d 6a 84 d5 be
       -0.010680453 0.025458118 0.036248244 -0.41702586
000120 bc b6 38 bc 34 79 0d bd 14 dc ac bd e4 cc 76 bd
       -0.011274036 -0.034539416 -0.08440414 -0.060253993
000130 18 df f1 3c 30 01 60 bc 38 50 5e 3b 5f aa 14 3d
       0.029525325 -0.013672158 0.0033922326 0.03629529
000140 de e6 d3 3d f8 b9 40 3c ee e9 92 bc 9c 7d fe bc
       0.10346769 0.011763088 -0.017933812 -0.031065755
000150 17 4a 58 bd 0e f8 09 3d a0 a7 e9 bc 10 81 a1 bd
       -0.052805033 0.03368383 -0.028522313 -0.07885945
000160 c4 a9 13 bc 16 d9 f1 3c ad 06 34 bd a1 2b 21 bd
       -0.009012643 0.02952246 -0.04395168 -0.03934825
000170 03 45 3d 3d e2 89 69 3c 20 eb 6c bd 41 34 a2 bc
       0.046208393 0.014254065 -0.05784142 -0.019800307
000180 bd c0 27 3d 4a f9 47 be 30 78 61 bd 8a d6 3a 3b
       0.040955294 -0.1952869 -0.05504626 0.0028509223
000190 e6 39 44 3d 8c 85 06 3d c0 5e 91 bc 38 76 81 bb
       0.04790678 0.032842204 -0.017745376 -0.0039508604
0001a0 1b bd 17 3d 75 6d a5 3d 84 48 1d bc f5 bc e4 bc
       0.03704558 0.08077518 -0.009599809 -0.027922133
0001b0 09 e5 68 3b d1 e4 89 bd 68 03 0a 3d 5a 8e b0 3c
       0.0035536906 -0.067330964 0.033694655 0.021552254
0001c0 cc f2 73 3c 6e c5 c5 be 4a 40 11 be cc 8c 74 3c
       0.01488943 -0.3862719 -0.1418468 0.014926147
0001d0 6e b6 84 bc 75 bc a5 bd b9 64 93 bd 5d 3c 84 3c
       -0.01620027 -0.08092586 -0.07196946 0.016142065
0001e0 02 c6 31 3d 5e 6a 22 bc 52 1f 97 bc 55 e9 a8 3d
       0.043401726 -0.009913055 -0.018447552 0.082476296
0001f0 d1 f8 cd 3b a8 c4 16 bc 31 40 7c bd e6 0e 57 bc
       0.0062857647 -0.00920216 -0.061584655 -0.013126111

edge_classifier.2.weight f4 [1, 128]
000000 0b 38 1a 3e 2d 9d 03 be 91 4b 0f 3e 4e f8 b0 be
       0.15060441 -0.12852927 0.1399367 -0.3456444
000010 d3 c6 55 3e e4 a0 24 3e ca 97 a8 3d 5c 34 90 be
       0.20876627 0.16077 0.082320765 -0.28164947
000020 95 df 18 be 4f a6 93 be 2a c0 2d be d5 7c dd bd
       -0.1492904 -0.2883782 -0.16967836 -0.108148254
000030 30 b4 ca 3d 2c ed a1 3d 51 92 e3 3d 08 61 c2 3a
       0.09897649 0.07906565 0.11111892 0.0014829943
000040 63 c9 f9 bd 58 ca a7 bd 3e 51 25 be 7f 07 c1 bd
       -0.121966146 -0.08192891 -0.16144273 -0.09425258
000050 5a a1 9d bd be 4c 59 3e 6c 99 38 be 0d 54 f2 3d
       -0.07696791 0.21220681 -0.18027276 0.11832438
000060 21 e0 e1 bd 66 d1 38 be bb 1b aa bd a9 e8 e3 3d
       -0.11029077 -0.18048629 -0.083060704 0.11128361
000070 4a fe 5e be ba 04 01 3e ac 7c ad 3d ad 46 df 3d
       -0.21776691 0.1259946 0.08471045 0.10902152
000080 aa b0 8a 3d c8 a3 38 be e0 c3 80 3d 03 67 09 be
       0.06771977 -0.18031228 0.0628736 -0.13418202
000090 94 30 f8 3d c9 71 e7 3d 09 eb c5 3e 42 b0 30 be
       0.121186405 0.11301 0.3865588 -0.17254737
0000a0 5b c6 06 3e 55 0f 71 be 15 ff d1 3e 67 5a 42 be
       0.13161604 -0.23541005 0.41014925 -0.18979798
0000b0 db 9f cc 3d 80 48 01 be c5 f7 18 3e bf 52 46 3e
       0.099914275 -0.12625313 0.14938267 0.19367503
0000c0 58 61 c0 3d 9c c9 3f be 14 bc b9 be 0c a3 5d bd
       0.09393567 -0.18729252 -0.36276305 -0.05411057
0000d0 11 90 72 bd 11 bc 6e 3e 74 e3 01 3e 32 3e e3 3d
       -0.059219424 0.23313929 0.12684423 0.11095847
0000e0 83 64 89 bd 4f 42 17 be c6 84 cf bd 48 9b 98 3d
       -0.06708624 -0.14771388 -0.101327464 0.074514925
0000f0 95 83 9c be dd b5 e5 3d e0 e6 91 3d c6 4b 37 3e
       -0.3056914 0.11216328 0.07124114 0.17899999
000100 24 ad 7e be ea b0 1f be c7 e9 35 3e 75 ef 74 3e
       -0.24870735 -0.15594831 0.1776496 0.2391947
000110 50 f8 6c be 01 4e d4 3d 39 83 8e bd e4 a6 d2 3e
       -0.23141599 0.103664406 -0.069586225 0.41142952
000120 36 81 12 be f1 6a 81 bd 2c 0e b3 3e 46 37 d9 bd
       -0.14307103 -0.063192256 0.3497175 -0.10606246
000130 83 42 42 be ff 14 17 be 5e 25 f1 bc 75 93 7b be
       -0.18970685 -0.14754103 -0.029436763 -0.24567969
000140 36 1a da 3d 29 71 d2 3d d8 d6 42 be 49 57 8a be
       0.106495306 0.1027549 -0.19027269 -0.27019718
000150 18 47 0e be cd 39 66 be 77 bf 49 bd ae e7 1e 3e
       -0.13894308 -0.22482987 -0.04925486 0.15518066
000160 17 15 e8 bd 4d b9 07 be 63 8b 01 be 47 0c 99 bd
       -0.113321476 -0.1325428 -0.12650828 -0.07473045
000170 1e c4 8e be b7 73 3f 3d f0 f1 1f be 8b eb 0c be
       -0.27884 0.046741214 -0.15619636 -0.13761728
000180 4e 96 ce 3d f7 2b b5 3e 23 a8 2e 3e 49 f1 b4 bd
       0.10087262 0.35385105 0.17056327 -0.08835084
000190 9e d6 fd bd 99 da a9 3d 2f ee 39 be ae a6 e8 bd
       -0.123944506 0.08293647 -0.18157266 -0.113599166
0001a0 da 0e 3c be ed 30 2d 3e b9 1b ec 3d 84 4b 16 3e
       -0.1836504 0.16913195 0.11528725 0.14677244
0001b0 e2 e9 7c be 69 3f 00 be 1a 65 17 3e 4d c1 b1 be
       -0.24698594 -0.12524189 0.14784661 -0.3471779
0001c0 e1 03 c6 3d 0d 5f de 3e 00 c4 2a 3e fc 17 7f be
       0.096687086 0.43431893 0.1667633 -0.24911493
0001d0 56 00 24 be 0d 71 10 3e 4f 7f 15 3e a0 1e 35 3d
       -0.16015753 0.14105625 0.14599346 0.04421866
0001e0 62 c6 90 bd 5c 52 be 3d 64 8d ff 3d c7 62 14 3e
       -0.070690885 0.092930526 0.1247814 0.14490806
0001f0 59 8d 81 be c7 e8 33 be 1b 3c 07 3e 72 0f 9f 3d
       -0.25303152 -0.17569266 0.13206522 0.07766618
