set2graph_model.pth (torch, 207328 bytes, 7 tensors)

set_to_set.0.weight f4 [128, 10]
000000 c4 61 5e be de 8f 55 3e d4 d4 c7 3d 56 a2 e5 be
       -0.21716982 0.20855662 0.097573906 -0.44850415
000010 6d a6 cc bc 26 8a ea bd 61 2b 0b 3d 24 f5 9b be
       -0.024981702 -0.11452131 0.033976916 -0.30460465
000020 31 a1 61 3e 41 54 9c be 44 47 4e bf d8 c5 74 bf
       0.22034146 -0.3053303 -0.8057749 -0.95614386
000030 23 3a 6c bd df 6a d6 3e 97 dd 19 be e8 06 25 3e
       -0.05767263 0.4187841 -0.15025936 0.16115916
000040 34 d4 4f 3b 88 6f 4d 3d 2f 27 96 3c d6 f9 7f bc
       0.0031712176 0.050155193 0.018329231 -0.01562353
000050 22 be ca 3f ca 49 b2 bf 20 0c 83 3b f4 49 b8 3d
       1.5839274 -1.3928769 0.003999248 0.089984804
000060 14 7f 51 3d 24 5b 19 3b 15 63 8e 3a 70 c6 f7 bd
       0.05114658 0.0023400271 0.0010863269 -0.12098396
000070 32 c9 f3 ba 01 56 1b 3b 9b ac 05 3b 51 04 ad 3d
       -0.001859939 0.0023702385 0.002039707 0.08448089
000080 25 c2 9e 3e ab 95 30 3d 86 ae 47 bd cf 47 9b 3e
       0.31007496 0.043111484 -0.048750423 0.30328223
000090 88 10 63 bd 25 a0 c1 3e 9d 2e 11 be bb 28 52 3e
       -0.055435687 0.37817493 -0.14177938 0.2052335
0000a0 7c d8 d5 be ac 09 aa be 5a 48 4e be 8c f1 48 3d
       -0.41766727 -0.33210504 -0.20144787 0.049058482
0000b0 cb cb 9b be f6 4a 94 3e fa 12 f9 3b fd 60 93 be
       -0.3042892 0.2896344 0.007601139 -0.28784934
0000c0 f3 66 3c 3e c2 4b 95 bb b3 ad 01 be 00 84 b3 be
       0.18398647 -0.00455615 -0.12663917 -0.35061646
0000d0 08 f7 45 bd b3 8b 28 be a6 d6 3e be 10 32 5c 3c
       -0.04833129 -0.16459541 -0.1863657 0.01343967
0000e0 7b ce 71 3c 3d da 7b be 3d d1 23 3e 14 33 66 be
       0.014758701 -0.2459497 0.15997787 -0.22480422
0000f0 78 22 9e 3f 79 c1 ab 3f 38 5f 75 3d d7 47 e6 3d
       1.2354269 1.3418418 0.05990526 0.11244171
000100 c7 0b e3 3c db 93 fd bc bb 95 bb 3a 9d c3 c9 bc
       0.027715577 -0.030954292 0.0014311591 -0.024629408
000110 5f 9e 6a bd 20 55 81 3b cf 31 a9 3e 04 4b 05 3e
       -0.05727994 0.0039469153 0.33045813 0.13016897
000120 4c a0 de 3d 0f 06 1e bf 3d ee 68 3d c3 ca 7e be
       0.10870418 -0.61727995 0.056867827 -0.24882035
000130 59 0d 02 bd 1d 41 1c bf 43 ba 39 bd 6b c2 b4 3d
       -0.03175101 -0.61036855 -0.04534365 0.08826145
000140 8c 59 bf 3f dc ea a3 bf e0 9e 0e bd 03 91 c4 bd
       1.4949203 -1.2806048 -0.034819484 -0.09597971
000150 54 c2 a4 3c 7e 28 2e bc a8 5c 4a 3b 7b 8e a1 3b
       0.020112194 -0.010629771 0.0030877981 0.004930315
000160 25 56 e5 3c 6a a1 38 bc 53 74 83 bf e3 9f 52 be
       0.027995178 -0.011268953 -1.0269874 -0.20568804
000170 66 0d 25 3e e3 f4 7d 3e 27 e6 8d bc b4 66 c4 3c
       0.16118392 0.24800448 -0.01732166 0.023974754
000180 6b 6f b7 3c e3 0f 58 bd 72 04 f9 bd 9c 7c b3 bd
       0.022391995 -0.052749526 -0.12159051 -0.08764002
000190 66 fe 59 3f 09 cb af be 0e 78 e9 3d 87 73 c9 3d
       0.85153806 -0.3433459 0.11399852 0.09836488
0001a0 83 00 a6 bf 7e 48 95 3d e8 6b 74 bc 28 6b 97 3d
       -1.2968906 0.072892174 -0.014918305 0.07393485
0001b0 b5 ed 4a bd 0d 8a 48 3d 8b e4 44 3f 95 18 99 3d
       -0.0495431 0.04895978 0.7691123 0.07475392
0001c0 fb 17 12 bd 65 70 85 3e 49 b7 96 be 36 38 b3 3d
       -0.0356674 0.26062313 -0.2943671 0.08750956
0001d0 11 76 4b 3d 4d 1f b1 bd 24 79 0e be 9f fb be be
       0.049673144 -0.08648548 -0.13913399 -0.37301347
0001e0 90 70 aa bf 96 53 00 bf c2 0f bb 3c 3b 4a 1a 3e
       -1.3315601 -0.5012754 0.022834662 0.15067379
0001f0 c6 eb 0a 3e e8 04 e0 bc 02 da 85 bc e5 60 fa bd
       0.13566503 -0.02734609 -0.016339306 -0.122255124
000200 c4 0f c0 3b f5 0a 88 3e 61 0a 3d 3f 08 f8 ad bc
       0.0058612544 0.2657086 0.7384396 -0.021236435
000210 1b 84 c2 bb 32 02 57 be 45 f6 95 be a3 46 df bd
       -0.0059361584 -0.20996931 -0.2928945 -0.10902145
000220 2c 86 d6 3c 3f 02 0c 3e ac 09 ad bc ac 96 98 bc
       0.026187025 0.13672732 -0.021122776 -0.018626533
000230 86 81 79 3f 46 1d 05 3f 9d 70 a9 3d 3d 5c 9a 3e
       0.9746326 0.5199779 0.082734324 0.30148497
000240 03 8c a4 3d 94 6b 41 be 97 f7 7f bc b3 fa 59 3e
       0.080345176 -0.18888694 -0.015622995 0.2128704
000250 c3 0d 55 be 4b c5 14 3e 3a c0 42 3f 0e dc 20 3f
       -0.20806031 0.14528386 0.76074564 0.62835777
000260 dc 4d 73 3e a5 c0 76 bd 36 33 ce 3c f5 83 70 be
       0.2376017 -0.060242314 0.025170904 -0.23487838
000270 a6 83 47 3b 0d 2e 86 3d 08 17 03 be 3f c7 3d bd
       0.0030443459 0.06551752 -0.12801754 -0.046332594
000280 78 6b 82 3f 37 79 27 bf 1c 50 72 bd 95 f4 95 be
       1.0189047 -0.65419334 -0.05915843 -0.29288164
000290 06 d0 54 be ff 18 9a bc 5d 65 4b bb 65 a2 49 3e
       -0.2078248 -0.018810747 -0.003103576 0.19690855
0002a0 f5 f2 37 3e 8d 4a 91 bd 99 c1 a6 3e 28 e1 fa 3e
       0.17963775 -0.070942976 0.32569578 0.48999906
0002b0 9c 3c e9 3e 4a 7c 92 3e 61 ef f5 3c 58 7d e9 3e
       0.45554054 0.2861045 0.030021371 0.45603442
0002c0 6f ff ab bb 43 e5 b0 3e f5 2b 2f bd a8 d3 a0 bd
       -0.005248956 0.34549913 -0.04276653 -0.0785287
0002d0 f9 56 2e 3f 1e 94 3d be 8a 57 3a be d8 1c f8 3d
       0.6810146 -0.18513533 -0.18197456 0.121148765
0002e0 66 4d 8b 3d f6 ed e8 bd f1 c9 85 bd 53 75 02 bf
       0.06801872 -0.113735124 -0.06532658 -0.5096027
0002f0 75 84 09 be 0b e8 a7 3e dc e7 27 bf fd cf 45 3f
       -0.13429435 0.32794222 -0.65588164 0.7727049
000300 b0 8c 42 bd 3d dc b7 be 44 2f ff be 87 f4 c0 bd
       -0.04749745 -0.35910216 -0.49840748 -0.0942164
000310 a4 bb 3e bb cd 8d b3 3e 48 8c d9 3d 8d 0f 4a 3d
       -0.0029103542 0.35069123 0.1062246 0.049331237
000320 0c 2b 62 3e ca 07 61 3e a0 f3 6b 3e 2e 7f ea be
       0.22086734 0.21975628 0.23042154 -0.45800155
000330 6f 75 fb bd 8a 16 cf 3d 0a 51 ff 3a 9f c4 a4 3d
       -0.12278258 0.10111721 0.0019479108 0.08045315
000340 5c 84 6a be 52 62 d6 3b 38 da d6 be 34 a3 8c 3f
       -0.22902054 0.0065424824 -0.41963363 1.0987306
000350 07 bb 06 3c 3f 08 30 be 91 08 45 bd 67 40 e1 3d
       0.008223302 -0.17190646 -0.048103873 0.10998612
000360 59 60 c4 ba 8b 93 39 3c e1 0e e3 3a 01 ff 3b bd
       -0.0014982327 0.011326681 0.001732316 -0.045897488
000370 24 5c 57 bf fc 92 d5 3e e8 3f 7b 3e 33 63 e1 bd
       -0.8412497 0.41713703 0.24536097 -0.11005249
000380 87 df 58 3e a8 1c 6b bd 9a bf 2c 3c 80 52 12 3e
       0.21179019 -0.057400376 0.010543728 0.14289284
000390 21 a3 53 be 7c 0d 94 be 89 22 1f be b2 46 52 be
       -0.20667697 -0.28916538 -0.15540518 -0.2053478
0003a0 71 6c d2 be 9e 43 15 bf 6b 62 c0 bd f7 58 ae bc
       -0.4109836 -0.583063 -0.09393772 -0.021282656
0003b0 28 81 80 3a 6d bb 64 bb 74 6b 88 3e 43 6b c8 3c
       0.0009804117 -0.0034901754 0.2664448 0.024465209
0003c0 99 c1 64 3f bd 83 5b 3f dd a3 b3 bd 37 ee 1f 3e
       0.89357907 0.8574789 -0.08771489 0.15618216
0003d0 9b b0 71 be af 4d 91 bd 97 24 f5 bc 56 06 d6 3e
       -0.23602526 -0.07094895 -0.029924674 0.4180171
0003e0 e6 2c 0e bd 47 10 60 3d 78 11 88 bf 10 af cd 3f
       -0.034710787 0.054703023 -1.0630331 1.606905
0003f0 40 ef e8 bc 7b 80 ab 3d 08 66 57 3d 59 cc 2c bb
       -0.028434396 0.08374115 0.05258754 -0.0026366918

set_to_set.0.bias f4 [128]
000000 28 5e ef be 9e 67 ae be fd 3a b7 be 38 fb 06 bf
       -0.46751523 -0.3406343 -0.35787192 -0.5272708
000010 e3 d6 d3 3c 8d e8 c9 3e 87 da a8 be de 2c ba 3e
       0.025859302 0.39435235 -0.32979223 0.36362356
000020 5c c7 21 be 5a a6 8a be 1f d3 43 be 30 0d 04 bf
       -0.15798706 -0.2708004 -0.19123505 -0.5158262
000030 15 1c 0c bf e8 6f 10 3f ce cd aa 3e 75 d1 94 3d
       -0.5473035 0.56420755 0.33360142 0.07266513
000040 bd 9f ae be c7 22 66 3d 53 cc f8 3e 5b af 94 be
       -0.34106246 0.05618551 0.48593387 -0.29040036
000050 64 ef 49 bf d7 ee 86 be 53 5b 42 3d 18 d7 75 bf
       -0.78880906 -0.26354095 0.047450375 -0.9603133
000060 e2 8f e0 3d bc 0f 6f be 7c e5 58 3e b5 51 24 bf
       0.109649435 -0.23345846 0.21181291 -0.64187175
000070 cd 18 8f 3c 95 10 ee 3e 4a aa 4e bf ff 42 26 be
       0.01746788 0.46497026 -0.8072859 -0.16236494
000080 e4 70 02 3f e2 75 bb be 5b 51 29 3f c9 01 3d 3e
       0.5095351 -0.36613375 0.66139764 0.18457712
000090 cf 91 b3 be 77 12 db be 31 90 90 bf a8 5d df 3e
       -0.3507218 -0.42787525 -1.1294004 0.43626142
0000a0 74 22 2d bd b6 80 cd 3e ba 3c eb be 0b 31 60 bf
       -0.042269185 0.4013726 -0.45944768 -0.87574834
0000b0 07 23 cd 3d 12 1f d2 be 37 9f 03 be d6 82 99 3e
       0.100164466 -0.4103933 -0.12853704 0.29982632
0000c0 96 0a 06 3e a1 ac 28 be 15 30 56 be 6c 91 f7 be
       0.13089976 -0.16472103 -0.2091678 -0.48353136
0000d0 6a bb 8d bd 8e 46 3c 3f 43 2b 35 3f f7 0e c0 3e
       -0.06920512 0.7354516 0.7076914 0.37511417
0000e0 6e 16 25 bf 80 03 07 be 20 73 2c bf e5 dc 1c be
       -0.6448735 -0.13184929 -0.67363167 -0.1531864
0000f0 39 8a d5 be e3 69 1f bf b7 61 98 be f6 f4 29 bf
       -0.41707018 -0.62270945 -0.2976205 -0.66389406
000100 89 d8 a6 be 85 37 a4 be 4d d6 f2 be b6 22 bb 3e
       -0.32587078 -0.32073608 -0.47429124 0.3654992
000110 10 b8 4f 3e 21 54 88 3e 10 d8 9f be 9b 59 ad 3e
       0.20285058 0.26626685 -0.3121953 0.33857426
000120 da 25 1f bf ad dd f4 bd 64 b8 2c be d8 f0 bb 3d
       -0.6216713 -0.11956344 -0.16867214 0.09176797
000130 68 bb a6 be e9 30 66 be 2d b9 dc be 77 a9 07 3f
       -0.32564855 -0.22479595 -0.43110028 0.5299296
000140 81 08 1a bf 7a 04 38 bf f1 0a e9 3e f4 49 76 3f
       -0.60169226 -0.7188183 0.4551616 0.96206594
000150 8b 28 8a be cd 77 1a 3e 4a f8 d5 bd 79 4e 84 be
       -0.26984057 0.15084763 -0.10447748 -0.2584112
000160 47 6f 18 3f ca 73 27 3d 7b ae 5b be da 49 90 be
       0.59544796 0.04088191 -0.21453278 -0.28181344
000170 71 55 50 3f 2f 92 21 bf 96 20 a4 bd 4b b1 dd 3d
       0.81380373 -0.63113683 -0.08014028 0.108248316
000180 8b 81 e9 be f8 b1 f0 3e 38 24 1e bf 22 1d 40 bf
       -0.45606646 0.4701078 -0.61774015 -0.75044453
000190 92 27 7f bf 9e 2b 9e be 80 2b a6 be 45 df af 3e
       -0.99669755 -0.30892652 -0.32455063 0.3435003
0001a0 33 ab 55 3d 15 71 2f be e5 2e bb be 0d df 2f bf
       0.05216522 -0.17132981 -0.36559215 -0.68699723
0001b0 f9 e1 68 3e 62 46 40 bf 52 99 19 bf f0 8c 84 3e
       0.22742452 -0.75107396 -0.59999573 0.25888777
0001c0 1b 0f c9 3e cb e3 9b be 94 bd ea 3e 5d 68 af be
       0.39269337 -0.3044723 0.45847762 -0.3425931
0001d0 3c f3 ca 3e d7 f3 df 3d c9 c0 f6 3e 91 72 2c bf
       0.39638698 0.10935181 0.48193958 -0.67362314
0001e0 14 c5 dc be 47 3e d4 be 2f 2e 83 bd cb dd c7 be
       -0.4311911 -0.41453764 -0.06405293 -0.39036402
0001f0 77 24 22 bf 3c b2 58 be 66 76 d5 be 28 8c ab be
       -0.6333689 -0.21161741 -0.41691893 -0.33505368

set_to_set.2.weight f4 [128, 128]
000000 5b a1 c5 bc 1b 5d d4 3e 51 ed 0e 3d cf 7c 1e bd
       -0.024124792 0.41477284 0.03489429 -0.038693246
000010 05 41 59 3d 7f b6 13 bd 4b cb 71 bd 0d 68 35 3c
       0.053040523 -0.036062714 -0.059031766 0.011072171
000020 f5 68 27 be bc 0c 17 3d 37 e8 0a be 45 39 41 3d
       -0.16348632 0.03687738 -0.13565145 0.047173757
000030 96 8b 1f bd 20 ae a5 bd 91 e7 2c bd 71 e4 29 3d
       -0.03895148 -0.08089852 -0.042213026 0.041477624
000040 a7 1e c2 3d af 98 17 be 39 db e9 bd 24 b8 84 3e
       0.09478503 -0.14804338 -0.114187665 0.25921738
000050 19 d1 a2 bb c4 79 8b 3e fa 54 a5 bd 5e cd 1f 3d
       -0.004968774 0.27241337 -0.080728486 0.039014213
000060 88 27 7f bd d9 d3 b1 bd 06 b7 4e 3d e1 f1 48 3d
       -0.06229356 -0.08682985 0.050467514 0.0490588
000070 d4 d7 ac bd 41 65 25 bd 6d 64 2d 3e f8 1c bb bd
       -0.084396034 -0.040379766 0.1693284 -0.09136385
000080 b3 dd 1b bd a4 1b 62 3d d0 12 88 3c 6d 5f 31 3e
       -0.038053226 0.05520214 0.016610533 0.17321558
000090 79 51 bb 3d 04 ff c2 bd e3 ae 92 3b ed a9 7b bd
       0.09146399 -0.095212966 0.0044764145 -0.06144135
0000a0 12 b2 5f bd d1 ba 0e bd 5b 64 8a 3e b2 2a e2 3c
       -0.05461318 -0.03484613 0.2702969 0.02760825
0000b0 fb 94 80 bd be da 22 be fa 36 b8 be 94 43 97 3c
       -0.06278416 -0.15903756 -0.35979444 0.018464841
0000c0 2c 54 e7 3d f7 11 1a 3d c1 9c 00 be fd 18 9c bd
       0.112953514 0.03761479 -0.12559797 -0.07621954
0000d0 3a 64 b8 bc ae 9b c1 3d d5 de c6 3c 6d dc b9 3d
       -0.02250873 0.09453522 0.024276176 0.09075246
0000e0 4e e4 c5 3d f4 93 bf 3d 97 ac aa 3d fd 88 3c be
       0.09662686 0.09354392 0.083337 -0.18411632
0000f0 51 a2 3c 3e 64 be 95 3d 36 63 01 3e 1d e0 50 bd
       0.18421294 0.07311705 0.12635502 -0.05099498
000100 03 0f c7 ba ef c2 8b 3c 1f 3f 1c 3c 81 89 f9 bd
       -0.0015186969 0.017060725 0.009536534 -0.1218443
000110 12 62 2a be 22 9a 82 3d 68 39 40 3d 34 2d 82 3d
       -0.16638973 0.06377055 0.046929747 0.06356278
000120 24 05 ad bd 05 d7 c5 be 5e 69 2c 3d 47 06 2e 3e
       -0.08448246 -0.3864061 0.042092673 0.16994582
000130 01 8b 00 3e 27 40 ec 3d 2f ed 8d 3e 0b ef fc bc
       0.12553026 0.115356736 0.2772002 -0.030875703
000140 fa 40 70 be f0 7d 19 3c 28 d2 8e bd d4 82 dd 3c
       -0.23462287 0.009368405 -0.06973678 0.027039923
000150 bc 9e af 3d d8 59 46 3e 8b 10 b4 3c ad 8c 88 bc
       0.08575198 0.1937021 0.021980545 -0.016668642
000160 ba 07 fa bd 3c ad 29 3d 9e 70 a7 bb 73 62 20 3c
       -0.12208505 0.041424975 -0.0051098606 0.009789097
000170 3b 74 b5 3d 16 fa e5 bc 93 02 96 bb 77 37 53 3d
       0.0886006 -0.028073352 -0.0045779436 0.051566567
000180 76 06 26 bc ef 25 10 bd 7d 0c fd bc 8e a0 0b 3e
       -0.010133376 -0.035192426 -0.030889744 0.13635466
000190 3b 06 11 bd 23 4d 99 3d 90 d6 71 be b6 62 a6 3c
       -0.035406332 0.07485416 -0.23617005 0.02031074
0001a0 56 e7 e5 bd 8c 8e 33 be a9 65 c2 3e 07 4b 8b 3e
       -0.112257645 -0.17534846 0.37968186 0.2720568
0001b0 ba db 99 bd 2f a4 1e be 34 b1 c4 3d 1d 8b 9a 3d
       -0.07512613 -0.15492319 0.09604111 0.07546065
0001c0 35 38 a7 bd 9a 3a 07 3d 38 0b 91 3d 3c 5b 09 be
       -0.081650175 0.03301487 0.07082218 -0.1341371
0001d0 22 84 89 3d c2 dc 92 3b 60 80 19 3d b8 20 3b 3c
       0.067146555 0.004481883 0.037475944 0.011421375
0001e0 df bd a5 be cc 44 2b 3e d3 d7 52 3d 95 5a 95 bd
       -0.32371423 0.16725463 0.051475357 -0.07292668
0001f0 61 64 c9 3d 0c 9e 03 3f e2 9e 6d 3e 58 32 b3 bd
       0.09833599 0.51413035 0.2320514 -0.08749837
000200 56 12 d2 bd 9e 4b 5a 3e eb ed bd 3e f8 40 16 3d
       -0.102574036 0.21317908 0.3709558 0.036683053
000210 f5 0d c2 b9 2f dd ca bd 70 56 5f 3e 9b 24 df bd
       -0.00037012962 -0.09905469 0.21810317 -0.10895654
000220 43 e5 80 3e 75 e1 fa 3c d7 bd f2 be 61 d7 cf bd
       0.25174913 0.030625084 -0.4741046 -0.10148502
000230 32 b8 bf bd fd 92 10 be 28 98 b9 3c ef 14 4e 3d
       -0.09361304 -0.14118572 0.022655562 0.050312933
000240 44 d5 12 bf 74 9f 96 3d fa 16 94 3d b1 ac 8c 3e
       -0.5735667 0.07354632 0.07230945 0.27475503
000250 f4 f1 1a be 1a 36 6f 3e c2 12 87 3d c2 6d 36 bd
       -0.1513136 0.23360482 0.06595375 -0.044538267
000260 bd 4c 4e be 54 7a bf be 40 ce b6 3d 23 aa 93 3d
       -0.20146461 -0.37398016 0.08926058 0.072101854
000270 a6 a7 54 bd 7a 9c ad bd 36 74 77 bd be 4b ed bd
       -0.051917695 -0.08477111 -0.06041356 -0.11586712
000280 e1 18 ce 3c 21 75 6a bc 39 c5 ed 3c 5a 22 24 be
       0.025158348 -0.014310152 0.029024707 -0.16028729
000290 15 4e b6 3d a1 e7 a0 be 2a bf 76 3d 73 a6 c8 bd
       0.08901612 -0.3142672 0.060240902 -0.09797373
0002a0 ab 5d d1 bd 43 31 cc 3c 3e 77 0a 3f a1 2b a1 bc
       -0.10222944 0.024925834 0.540882 -0.019674124
0002b0 47 1a c5 3e 55 9c c2 be ad 2f 26 bd 61 eb f7 3d
       0.3849661 -0.38009897 -0.04057281 0.12105442
0002c0 53 1c 5b be ef f6 d9 3d 9d f5 f1 be 55 ee 06 bf
       -0.21397524 0.10642802 -0.472577 -0.52707416
0002d0 ac d5 eb bd 50 f2 11 be 6a 77 c1 3c 98 23 57 3d
       -0.11515364 -0.14252591 0.023616511 0.05252418
0002e0 63 40 cd 3c f3 02 e0 ba 8b 41 86 bd e5 39 47 3e
       0.025055116 -0.0017090723 -0.0655547 0.19455679
0002f0 d9 d5 b1 be 07 8d fc 3c 8c 3d a5 3d 89 76 0e 3d
       -0.34733465 0.030828966 0.0806838 0.034781013
000300 37 ba a4 3d bc d4 e4 bd 45 be eb 3d 45 ee 86 3d
       0.0804333 -0.11173388 0.115109004 0.06588415
000310 51 75 19 bd 99 71 87 bc ec 3c 98 3e eb 21 22 3d
       -0.037465397 -0.01653366 0.2973398 0.039583128
000320 2f 85 01 bf 54 5d 53 be 71 9f 65 be 1f 6b 07 3f
       -0.5059385 -0.2064107 -0.22424103 0.5289783
000330 68 24 8f bd da 72 e9 3c 76 61 ac 3e da 81 c4 3b
       -0.06989366 0.028497148 0.33668107 0.005996925
000340 99 58 63 be 3f 4e b5 3d 16 82 a0 bc d3 99 36 bd
       -0.22201766 0.08852815 -0.01959328 -0.044580292
000350 fd 8a e6 bd 13 4c ab be 75 13 03 3d d0 bf 6d bd
       -0.11256979 -0.33456478 0.032000978 -0.058044255
000360 1d b1 83 3c 71 47 03 3d 15 f6 31 bd f6 4b 54 3d
       0.016075665 0.032050554 -0.043447573 0.051830254
000370 72 e5 a8 3d 4d 25 a1 3d 60 a9 b2 3d 8b c0 80 3d
       0.08246888 0.07868443 0.08723712 0.06286725
000380 0d 7e 41 bd af b7 1e bd 87 2c 45 3d 53 50 dc bd
       -0.047239352 -0.038749393 0.048138168 -0.10757508
000390 5b d4 5d 3d 7d 80 08 3c d0 00 a0 be cd ee db 3b
       0.054157596 0.008331415 -0.3125062 0.006711817
0003a0 8c 1a b7 be c4 5d f0 be ea ed e0 3e 71 54 21 3e
       -0.3576244 -0.46946537 0.43931514 0.15754868
0003b0 40 e2 05 be 90 13 02 bf 9f 80 75 3e f9 f3 65 bd
       -0.13074589 -0.508111 0.23974846 -0.056140874
0003c0 b1 ab 55 3d 01 44 7a 3e b1 c1 af 3d eb e5 a3 3d
       0.05216569 0.24440004 0.085818656 0.08002838
0003d0 4f f6 02 bd d8 b3 41 3d af c4 1f 3c 49 a3 99 bd
       -0.03197318 0.047290653 0.009751483 -0.07501847
0003e0 83 d2 ac be 41 48 99 3e 0d c1 cf 3d 0a 44 82 3d
       -0.33754358 0.29937938 0.101442434 0.06360634
0003f0 af a6 11 bc 2b c5 f9 3e 55 8c 8b 3e 12 9a 28 be
       -0.008889838 0.4878324 0.27255502 -0.16465023

set_to_set.2.bias f4 [128]
000000 b7 60 0f 3e 69 1f 20 be e9 89 20 be a3 64 ee bd
       0.14001738 -0.15636982 -0.15677609 -0.11640289
000010 a9 be 14 be 90 03 63 bd 30 18 79 be 59 19 5a 3e
       -0.14525856 -0.05542332 -0.24325633 0.21298732
000020 d3 f1 11 bf 40 08 82 3d 0b 84 b9 bd ee fd 93 3e
       -0.5700962 0.0634923 -0.09058388 0.2890467
000030 51 c8 4a be 89 da 3f be 94 2c 00 3c 9b 76 09 3f
       -0.19802977 -0.18735708 0.007823128 0.536966
000040 94 39 c7 3e 18 46 ea 3d 0d 29 93 3e 69 bd 1e bd
       0.38911116 0.114391506 0.28742257 -0.038754854
000050 ce 6a 74 be e8 b3 f8 bd 81 32 a5 3e 63 3b 83 3d
       -0.23868868 -0.121436894 0.32265094 0.064078115
000060 c3 40 e6 bc b2 70 91 3e 7d 2b d7 3d 8c 4c 0c bc
       -0.028107053 0.28406292 0.105063416 -0.008563172
000070 1e ea 2a be 67 05 aa bd 0e cf 8e be 3f 30 c7 3d
       -0.16690871 -0.08301812 -0.27892345 0.09725999
000080 b7 49 83 3d 60 c6 f3 bd 67 a8 bf bd 6c 1f 58 3e
       0.06410544 -0.119030714 -0.09358292 0.21105736
000090 b8 d6 a4 be 01 46 2e 3c a1 2e 4c bc 53 0a 9e bd
       -0.32195067 0.010636807 -0.012462289 -0.07716813
0000a0 ae d2 88 3e 13 ca 1a 3d 04 85 b5 3d d4 2b 0e bf
       0.26723236 0.03779037 0.08863261 -0.55535626
0000b0 9e 1b 91 be af 87 ac 3e c7 d3 bb 3e ee 3b 99 bd
       -0.28341383 0.33697268 0.3668501 -0.07482134
0000c0 69 9a 20 be f1 95 14 be da 18 80 bd 91 f0 d1 bd
       -0.15683903 -0.14510323 -0.0625474 -0.102509625
0000d0 bd 59 89 3e a1 9e cb 3d 69 18 ae 3d a3 1f c1 be
       0.26826277 0.099423654 0.085007496 -0.3771945
0000e0 66 29 4d 3d 16 24 69 3d c3 32 5a 3e a3 f6 26 bc
       0.05008831 0.05691918 0.21308427 -0.010190639
0000f0 0b 91 d2 bd 7f 24 8e be ad d6 5b 3e e2 ce b1 bd
       -0.10281571 -0.2776222 0.21468611 -0.08682038
000100 49 fe 48 be 8f 20 89 3e 8d 82 a2 3a e2 2f d6 3e
       -0.19628252 0.26782653 0.0012398526 0.41833407
000110 fb fa ac 3d 1a 95 1a 3e 31 66 8d be ee 8a 8b 3e
       0.08446308 0.1509594 -0.27617028 0.27254432
000120 dc b0 e3 3e 56 f4 4c be 0e 19 16 3e 26 6c d1 3e
       0.4447087 -0.20015082 0.14657995 0.40902823
000130 2d e5 b4 3e 62 b6 3d be bf f9 ff bc 8c 50 60 be
       0.35331097 -0.18526605 -0.031247018 -0.21905726
000140 6b 27 cd 3e 67 f7 1f 3d 3d eb bf 3d e9 b6 00 bf
       0.40069136 0.0390543 0.0937104 -0.502791
000150 63 97 d0 3e 87 af a5 3d 18 10 66 be 98 ef cf bd
       0.407405 0.0809012 -0.22467077 -0.10153121
000160 e0 3f 2d 3e 26 74 96 3e 77 cd 12 3f c8 e3 f3 bd
       0.16918898 0.2938549 0.57344764 -0.1190868
000170 26 70 b5 bd 93 c1 d4 bd f4 a7 f7 be 68 55 45 be
       -0.08859281 -0.10388484 -0.48370326 -0.19270861
000180 ae ee 91 3e a2 c2 a5 3d 84 cf 25 be d2 c6 2d be
       0.2850241 0.08093764 -0.16192442 -0.16970375
000190 9b fd 67 be 5f e0 a1 3c dc 49 58 be b5 ef 4d be
       -0.22655337 0.019760309 -0.21121925 -0.20110972
0001a0 64 7a e0 3d 63 50 bf 3d ab ce bc 3e 03 0d f1 3d
       0.10960844 0.093415044 0.36876425 0.1177006
0001b0 8d ee 7a be 71 24 aa be 92 a9 25 3e 0a 90 a9 3d
       -0.24505062 -0.33230928 0.16177967 0.082794264
0001c0 0a 26 39 3e 3a 22 1e be 69 2a c8 3c 7b 90 ce bd
       0.18080917 -0.15442744 0.024434285 -0.10086151
0001d0 bd fe 8c 3d 04 90 bf be 70 e8 1b 3f c3 c2 90 be
       0.06884525 -0.37414563 0.60901546 -0.2827359
0001e0 7d e0 39 3b f0 8e fd 3c 38 29 32 3d 9f ab 1b 3c
       0.0028362565 0.030951947 0.04349634 0.009501367
0001f0 48 52 bf bd 02 da 77 3e a1 4e 10 3e 05 22 81 3e
       -0.09341866 0.24204257 0.14092495 0.25221267

edge_classifier.0.weight f4 [128, 256]
000000 c1 14 28 3d 0b 38 0b be 45 88 1a 3e 4c bd a4 bd
       0.041035417 -0.13595597 0.15091045 -0.08043918
000010 e8 fe ce 3d e0 3f 9e bd dc 68 43 3d e6 f0 34 3e
       0.10107213 -0.07727027 0.047707424 0.1767002
000020 87 45 26 3d aa 28 d0 3d 0e 01 88 3e aa fe 8c 3c
       0.04059365 0.10164006 0.26563305 0.017211277
000030 f1 c3 a7 bc 5f eb 19 bd 30 9f d1 bc 7a 96 f7 3b
       -0.020479174 -0.037577983 -0.025588602 0.00755578
000040 72 fa 5e 3d bf 76 26 3e 5d 30 a0 bd c0 40 75 3c
       0.054438062 0.16256236 -0.078217246 0.014969051
000050 5a b4 7d bd 89 05 b6 bc 90 69 97 3c 29 79 3e 3d
       -0.061939575 -0.022219436 0.018482953 0.046502266
000060 b9 e3 ea 3c 7a 31 0e 3e 56 23 66 3d 3d 3d 5b be
       0.02867304 0.13886061 0.056186043 -0.2141008
000070 fa ca bf bc ca 0e 91 3d 2c b6 b9 bd 52 ac fe 3c
       -0.023412216 0.07082899 -0.0906795 0.031088028
000080 15 6c 89 bb c7 2c 09 bd 97 ee 35 bd 19 f6 3a bc
       -0.0041937926 -0.03348997 -0.04441699 -0.011411213
000090 62 28 dd 3c 9f 2a 0d be 25 31 0e be ab 21 3b be
       0.026996795 -0.1378579 -0.13885935 -0.18274562
0000a0 00 5f 81 3d 13 71 b5 3d 12 3b 65 3d 74 61 82 bd
       0.06316948 0.08859458 0.055964537 -0.06366244
0000b0 c9 1d e9 bc d1 fc 87 bd 87 70 72 3e a9 99 41 bd
       -0.028456585 -0.06640018 0.23675738 -0.047265682
0000c0 31 95 08 bd 30 e9 31 3e 7c 8e f8 bd 52 a9 3a bd
       -0.033345405 0.1737411 -0.12136552 -0.045571633
0000d0 53 a1 44 3e 8b 1b 0a 3d fe 35 6a 3d 73 df 62 3e
       0.19202165 0.033717673 0.057180397 0.22155552
0000e0 4f 94 b1 bd 99 1a 29 bd 5b 5c 1c be b5 49 31 be
       -0.08670866 -0.04128513 -0.15269606 -0.17313273
0000f0 c7 08 d6 bc 1a 0e 24 3e 2c 58 ec bc 7b 29 19 bc
       -0.026127232 0.16021004 -0.028850637 -0.009348269
000100 30 16 4a 3d e5 55 84 3e a5 95 52 3e 8f e6 19 be
       0.049337566 0.25846782 0.20564897 -0.15029357
000110 52 37 b5 bd c8 1c 0e 3c a6 12 19 bc 1f 40 e9 bb
       -0.08848442 0.008673854 -0.009342825 -0.0071182395
000120 e0 7a 0d bd 1d 73 1f be 2e da 16 bd 2f 69 e5 3b
       -0.03454101 -0.15571256 -0.036829166 0.0070010643
000130 41 af a0 3e a3 42 c6 bd d2 1d af bd aa f3 48 be
       0.31383708 -0.09680679 -0.0855061 -0.196242
000140 37 ab ee 3c 33 75 18 be 72 61 8e 3c ad b4 6b 3d
       0.029134376 -0.14888458 0.01738045 0.057545353
000150 72 8d 6e bc a3 f3 80 3d 9b ba de bd 37 df 08 be
       -0.01456009 0.0629647 -0.10875436 -0.133664
000160 f8 54 a4 3c e1 41 f6 3c 4e 74 8c bd 1b 48 70 3d
       0.020060048 0.03006071 -0.06858121 0.058662515
000170 07 fb df 3c 97 61 7d 3d 9f f5 b4 bc e2 35 c0 bd
       0.027341379 0.061860647 -0.022089778 -0.09385277
000180 fb 2a 03 3d 8c 31 7f 3d 05 42 c4 bd 82 45 c6 38
       0.03202341 0.06230311 -0.09582905 9.4543226e-05
000190 83 97 e6 bd af b4 97 bc 04 23 7f bb 89 f4 09 be
       -0.11259367 -0.018518774 -0.0038930783 -0.13472189
0001a0 5f a7 b5 bd 19 ce cf 3c fd 78 71 3e 32 45 ba 3b
       -0.08869814 0.02536683 0.2358131 0.0056845183
0001b0 bf 9b 80 3d a2 ae b9 bd 39 7e 4f 3d f6 65 a0 3d
       0.06279706 -0.09066512 0.050657485 0.078319475
0001c0 dd 6e 83 3e 4f 6b 81 3d 7c 6b ce bd 9f 4e 2b 3c
       0.2567052 0.063192956 -0.10079095 0.010455756
0001d0 d6 c0 b0 3d 6a fa 78 3d b5 c0 d2 bd 85 9e 8d bc
       0.086305305 0.06078569 -0.10290662 -0.017287502
0001e0 d0 18 b3 bd 71 1a 25 3e ad de ec 3d 64 48 21 bd
       -0.08744967 0.16123368 0.115659095 -0.039375678
0001f0 d9 be 47 bd dd 5f c0 3d 40 05 ea ba af 12 fe 3c
       -0.04876599 0.093932845 -0.0017854348 0.031014768
000200 5a d6 d8 bd 0b 0c 7e 3e ab dd 62 3d 16 3a 99 bb
       -0.10587759 0.24809282 0.05538718 -0.004676114
000210 8f 80 d2 3d e8 17 42 bd a2 8e be bd e4 86 fd 3d
       0.10278427 -0.04738608 -0.09304549 0.12379244
000220 ae da 17 be 8c 43 ed bb 54 52 32 be 69 f6 ab 3e
       -0.14829513 -0.007240718 -0.17414218 0.33586434
000230 70 66 e2 3d 6c e3 2b 3d ae 8b 60 bc fb 34 2a 3e
       0.11054695 0.041964933 -0.013705177 0.16621773
000240 dd e2 24 3d 4a d2 41 3e 90 79 75 3e 79 e6 21 3e
       0.040255416 0.18927875 0.23972154 0.15810575
000250 b8 9b 10 be de 8a 29 bd e5 98 9c 3d b9 33 fd bd
       -0.14121902 -0.0413922 0.0764635 -0.12363381
000260 92 f6 56 bd f0 fb 0f be c4 cc 85 be 9c 0e 2a 3e
       -0.05248124 -0.1406095 -0.26132786 0.16607136
000270 4b 42 03 be 8a f9 d4 3d 43 0c 0c bc f0 85 24 3d
       -0.12818258 0.10399158 -0.008547845 0.040166795
000280 a8 b9 6e 3e 47 8c ef bd 0a 5a 0c 3e d5 7d 19 be
       0.2331301 -0.11696678 0.13706222 -0.14989407
000290 01 de 91 bd 44 2d 8f 3d c2 19 b2 bd 1e 0d 37 3d
       -0.07122422 0.069910556 -0.08696319 0.044690244
0002a0 db 51 32 be d7 a3 3e bd b3 3c 02 be a8 ee 60 3e
       -0.17414038 -0.04654297 -0.12718467 0.2196604
0002b0 fa 86 57 be d2 a9 37 3d 8b 5b 03 3e 81 d1 79 3d
       -0.21047583 0.044839688 0.1282789 0.060990814
0002c0 f5 a9 28 3d 27 b7 c7 3d 12 ca 10 be cf 1f 3f 3d
       0.04117771 0.097517304 -0.14139584 0.046661194
0002d0 fc 95 8c 3d e6 f4 00 be 1f 51 3b be 64 12 82 be
       0.06864545 -0.12593421 -0.18292664 -0.25404656
0002e0 9a 85 0c 3e 6d 59 ec 3d 35 36 2a 3e aa 84 14 3e
       0.1372284 0.11540494 0.16622241 0.14503732
0002f0 62 0f d2 3c 4d 40 3d be 51 f8 0c 3d 28 49 f9 bd
       0.0256421 -0.1848156 0.0344165 -0.121721566
000300 d4 15 b6 3c 73 56 3f 3c e8 30 13 bc 34 db 03 3d
       0.022227205 0.011678326 -0.008983828 0.03219147
000310 d8 e4 ec 3d 42 86 88 3b bf 44 81 bd 19 ff 1c be
       0.11567086 0.0041663954 -0.063119404 -0.15331687
000320 49 38 d5 bd 10 ee 6c bd 99 e4 5b bd 4b 3c 61 be
       -0.10411126 -0.05784422 -0.053684805 -0.21995656
000330 b1 2e 65 3d 00 80 02 3e 7a 6e 08 3e 85 55 83 be
       0.05595273 0.1274414 0.13323393 -0.25651184
000340 14 3a 14 be 0f 48 ef 3d e2 3e 6b be d7 cb 2e 3e
       -0.1447528 0.11683666 -0.22973207 0.17069946
000350 08 13 22 3d 47 86 6f 3d f0 cd d0 bc 37 ee 9d be
       0.03956893 0.058477666 -0.025488824 -0.30845806
000360 95 5e 8c bc 74 7f 9d 3c 02 74 49 be 7f 8d 11 be
       -0.017134944 0.019225813 -0.1967316 -0.14214133
000370 27 28 39 3d 9d c7 58 3d 06 d3 10 3e 48 bc 5d bc
       0.045204308 0.05292474 0.14142999 -0.013533659
000380 eb ae 34 bd 8b bc cb 3d 96 7d 42 3e ac 44 f7 bc
       -0.044112127 0.09948071 0.1899322 -0.030184112
000390 ae ee 7e bd 39 da f1 bc 75 26 2b bc 78 e3 17 be
       -0.06223934 -0.029523002 -0.010446181 -0.14832866
0003a0 c4 88 bb 3d f9 9d 06 3e 19 3a 10 3c 45 9a 38 3e
       0.09156945 0.131462 0.008802914 0.18027599
0003b0 0d 70 4b bc 8d 3e 59 3c 5f b9 da bb 24 1b 4c 3e
       -0.012416852 0.013259542 -0.00667493 0.19932228
0003c0 7a c3 0c bd 83 96 42 bd 6c 1a 08 3e 77 f5 06 be
       -0.03436611 -0.04750682 0.13291329 -0.13179575
0003d0 98 6d e6 bd 38 5f 81 bd df 03 bd bd 4e 89 5a be
       -0.11251372 -0.0631699 -0.09229254 -0.2134144
0003e0 ea b9 df bc 46 d8 ed bc 5a be 1a bb 36 08 e4 bd
       -0.02731033 -0.029033791 -0.0023611994 -0.111343786
0003f0 1c ea 31 be ad e4 b6 bd 7a dd 18 bd ea a3 61 bd
       -0.17374462 -0.08930335 -0.03732059 -0.05508796

edge_classifier.0.bias f4 [128]
000000 a0 db a1 be f4 d7 87 be 36 0f 67 bf 5b 6f 47 be
       -0.31612873 -0.26531947 -0.90257585 -0.19476072
000010 93 7c a5 3e b6 49 1d be 40 a5 e7 be 5a 34 f8 be
       0.32321605 -0.1536015 -0.45243263 -0.4847744
000020 72 28 8c be 41 79 58 bd 7c db 1c bf 0e aa b4 be
       -0.27374607 -0.05285001 -0.61272407 -0.3528599
000030 65 d8 81 be 97 9b c2 bd a1 1e d7 be 4c 4c c0 be
       -0.25360408 -0.09502333 -0.42015556 -0.3755821
000040 c3 32 4f be 52 fb b2 be aa 72 e3 bd a6 8c a5 be
       -0.20234208 -0.34957367 -0.11105855 -0.3233387
000050 9b f3 bf be f5 21 90 be 5e 99 24 bf e5 69 b4 be
       -0.37490544 -0.28150907 -0.6429652 -0.3523704
000060 a6 8f 15 be b7 8a 0e 3f 43 1d 28 bd 3f 37 7b be
       -0.14605579 0.5568041 -0.04104353 -0.24532793
000070 90 a9 5b 3e a5 fd 19 3f 7f 60 f8 bd 64 51 26 3f
       0.21451402 0.60152656 -0.1212778 0.6496794
000080 3a 8b fd be b1 0c cc 3e 6b bd a1 be 8e e6 06 bf
       -0.49520284 0.39853433 -0.31589827 -0.5269555
000090 02 6e 47 bf 39 bb af be ac 96 24 3f b7 12 e0 bd
       -0.77902234 -0.34322527 0.6429241 -0.109410696
0000a0 81 7a c1 be 48 ef ad be 2d 77 bc be 6f 1d 99 be
       -0.37788776 -0.3397162 -0.36809674 -0.2990527
0000b0 d2 cc 06 be a9 6d bd 3e 4f cc 0e bd 15 fd 18 be
       -0.1316407 0.36997727 -0.034862813 -0.14940293
0000c0 e7 01 02 bf 82 a4 93 be 61 52 d1 be ca 82 b6 be
       -0.5078415 -0.28836447 -0.40883163 -0.3564666
0000d0 63 02 0d 3f 61 d2 ae 3d 19 78 13 bf fe 76 b9 be
       0.55081767 0.0853622 -0.5760513 -0.36223596
0000e0 2d 21 b5 be 3f af ec be 5d b5 4c be 7f 1f 5d bf
       -0.35376874 -0.46227452 -0.1999106 -0.86376184
0000f0 7c 8e 98 be cc 22 37 be 2c 36 f6 be cb e5 c0 be
       -0.29796207 -0.17884368 -0.48088205 -0.37675318
000100 a5 d3 96 be af a8 60 be ef 2c b9 3e 4a 53 fe be
       -0.29458347 -0.21939348 0.36167094 -0.4967292
000110 57 08 2d 3e 65 0c 02 3f 6d 9a 39 3e 77 27 b6 3e
       0.16897713 0.5080016 0.18125315 0.35576984
000120 13 da a6 3e 39 5b 5d be 3f 7e c7 3e 7e 09 87 bd
       0.32588252 -0.2161683 0.38963506 -0.06593607
000130 62 17 2a bc e7 e4 ff bd ac eb 14 bf 0f 34 b2 3e
       -0.010381551 -0.124948315 -0.58172107 0.34805343
000140 a4 7b 25 bd e6 8e 07 bf 94 ae df bd ed 55 86 be
       -0.040401116 -0.5295242 -0.1092197 -0.2623743
000150 0b 3c df 3e bb bf c6 be 83 4f bb be 33 a6 80 bf
       0.43600497 -0.38818154 -0.365841 -1.005072
000160 48 46 a1 be 65 d2 66 bf 21 c8 b0 be 7f 95 7a bf
       -0.31498933 -0.90164787 -0.34527686 -0.9788436
000170 a6 8d 5a bf ce fa 3b bf cd ad 1e be 44 26 20 be
       -0.8537239 -0.7342957 -0.15495987 -0.15639597
000180 9a 78 a5 be bf db af be 9c 22 1f be d8 49 5a bf
       -0.32318574 -0.3434734 -0.15540546 -0.85268927
000190 40 12 72 be b8 b3 a3 be d3 82 0e be fb fa 31 be
       -0.23639774 -0.31973052 -0.13917093 -0.17380898
0001a0 0d 0b d4 be 49 06 79 be 82 3e 41 bf 3c fa 8e be
       -0.4141468 -0.24318804 -0.75486004 -0.2792529
0001b0 5a 29 c9 3e 9c df 1c 3f 62 eb 30 3f 3c f9 e2 be
       0.3928936 0.612787 0.69109166 -0.44330776
0001c0 a2 a8 f5 bd d0 de 21 3f c3 d4 af be 1f 1c 0e bf
       -0.11995055 0.6323061 -0.34342012 -0.5551166
0001d0 a1 94 e9 3e af a3 a1 be f1 05 da be 80 13 25 3f
       0.45621207 -0.31570193 -0.42582658 0.6448288
0001e0 bb 84 11 bf 1c 58 e3 be fa 87 81 3e f5 1c dc 3e
       -0.56843156 -0.4440316 0.25299054 0.42990842
0001f0 bc a1 96 3e fb 06 84 bd f5 8a d8 3e 49 9f ae bd
       0.2942027 -0.06446644 0.42293516 -0.08526475

edge_classifier.2.weight f4 [1, 128]
000000 01 db ba bd 22 66 13 be 8e 58 3e 3d 01 aa 43 bd
       -0.09123803 -0.1439443 0.04647117 -0.04776955
000010 07 26 54 3d 77 cb 2d be 3c 23 ef 3d 91 b8 ba bd
       0.05179408 -0.16972147 0.11676642 -0.091172345
000020 75 a4 ca 3d 35 47 be bc 1e ff 1e 3e 9f 95 19 be
       0.09894649 -0.023227314 0.15527007 -0.14998482
000030 4e be 6b bd ca 46 23 b9 9f 4f c5 3d 83 ae 93 bd
       -0.057554536 -0.00015571262 0.09634327 -0.0721102
000040 d8 4d df bd 69 f9 ab bb b9 30 19 3c 28 c6 c0 bd
       -0.109035194 -0.005248238 0.009349995 -0.09412795
000050 98 87 2c ba 6f 7a 86 bd 3e 23 a9 3d f8 73 a0 bd
       -0.00065814843 -0.06566321 0.08258675 -0.07834619
000060 00 cd b0 3d 82 77 ba 3d 26 33 11 bc 1b 8e 95 bc
       0.08632851 0.091048256 -0.008862292 -0.018256238
000070 10 6b b0 3d ef 06 82 3d d4 e6 13 be 3b 07 a4 3d
       0.086141706 0.06348979 -0.14443523 0.080091916
000080 bf 27 0e 3e 6e 69 98 3d c2 7b 13 be 3f 2d c6 bd
       0.1388235 0.07441984 -0.14402679 -0.09676599
000090 2a 39 88 3d 30 aa 8f bc bb 71 83 3d 5c 8a b8 bd
       0.06651528 -0.017537206 0.06418177 -0.09010765
0000a0 04 19 06 3e b2 95 64 be 3a 8e e2 bc ca 3f a0 bc
       0.1309548 -0.22322729 -0.02765571 -0.019561667
0000b0 24 36 9e ba 73 f8 35 3d bc b5 a8 bd b6 ae 7e bd
       -0.0012070579 0.044426393 -0.08237788 -0.062178336
0000c0 67 8d b2 3d 5c 76 a9 bd 50 96 e6 bd 10 17 c5 bd
       0.087183766 -0.082745284 -0.112591386 -0.096235394
0000d0 57 4a 8e 3d a9 4d 85 bc 42 25 47 3d 27 e2 e2 3d
       0.06947773 -0.016272383 0.048619516 0.110782914
0000e0 7d 4f c4 bd 73 b9 0a be 64 22 ec bd ec f8 bd 3d
       -0.09585474 -0.13547306 -0.11529997 0.09275994
0000f0 db 64 5a bd 9e 77 61 bd e4 d4 35 be 32 a8 92 bd
       -0.05331884 -0.055045716 -0.17756993 -0.07160987
000100 52 67 61 be e2 d8 eb bd 15 74 21 3d c4 e5 a2 bd
       -0.2201207 -0.115159765 0.039417345 -0.079539806
000110 db 14 31 3c fe 9d be 3d 1f 60 44 3d 0c 81 11 3e
       0.010808195 0.09307478 0.04794323 0.14209384
000120 43 ca 19 3d cc 82 c6 bd 7c 55 11 3d 47 df c7 bd
       0.037546407 -0.09692916 0.035481915 -0.09759384
000130 14 c9 0d bc 04 4a d9 bd 51 23 13 3e 30 ae 49 3d
       -0.008653898 -0.106098205 0.14368941 0.049238384
000140 61 c6 e1 3b 6e 9e d8 3d f2 59 98 bd 38 db 9a bd
       0.0068901037 0.10577093 -0.07439031 -0.07561344
000150 12 8b 13 3d cd 64 b7 3d b9 b7 ed 3d c5 95 bc 3d
       0.0360213 0.08954773 0.11607308 0.09208254
000160 37 18 c5 bd 23 50 c7 3d 74 75 8b bd 9a 3e 86 3d
       -0.09623759 0.09732082 -0.06809512 0.06554909
000170 83 ce 95 3d 72 33 e1 3d 63 42 e5 bd 02 eb a8 bd
       0.073147796 0.109961405 -0.11194303 -0.08247949
000180 43 74 4b bd b8 74 a6 bd e3 37 8b bc 72 f1 96 3d
       -0.049671423 -0.08127731 -0.016994422 0.07370271
000190 40 3d a4 bd 47 ec 0f be fe 41 e1 bd 4f 76 dc 3d
       -0.08019495 -0.14054976 -0.10998915 0.10764753
0001a0 89 28 0d be cd 6c af bd 12 f1 a2 3d 8e 30 a4 bd
       -0.13784994 -0.08565674 0.07956137 -0.080170736
0001b0 6a 62 ad 3d 20 4f aa 3d 89 f2 e9 3c 51 1f 8b bd
       0.084660366 0.08315873 0.028558033 -0.067930825
0001c0 4e 1c a5 bd e0 47 2c 3d 43 45 ae bd 21 53 8f bd
       -0.08062039 0.042060733 -0.085093044 -0.069982775
0001d0 36 19 d4 3a 88 78 f7 bd 52 77 1f be 55 bd 22 3d
       0.001618183 -0.120835364 -0.15572861 0.039731342
0001e0 51 39 2d 3c 2e 8a 83 bd 33 38 c3 3c 2c 52 97 37
       0.010572747 -0.0642284 0.023830509 1.8038867e-05
0001f0 12 1a c8 3d 68 20 2b 3e 23 a3 90 3d 79 d3 a5 bd
       0.097705975 0.16711581 0.07062366 -0.08096976
