set2graph_model.pth (torch, 207328 bytes, 7 tensors)

set_to_set.0.weight f4 [128, 10]
0	0xbbf5b7ec	-0.007498732
1	0xbe625f59	-0.22106685
2	0xbd5751c8	-0.052568227
3	0xbe989182	-0.29798514
4	0x399d0d97	0.000299555
5	0xbe9f136e	-0.3106951
6	0xbe7e9257	-0.24860512
7	0x3e5f249f	0.21791314
8	0xbea8d3c6	-0.3297407
9	0x3e76eb00	0.24113083
10	0x3e012e6f	0.1261537
11	0x3e3769db	0.17911474
12	0x3db6e2ec	0.08930001
13	0x3dd2347c	0.10263917
14	0x3ddaa930	0.10676801
15	0xbcd19ad7	-0.025586529
16	0xbd9eda59	-0.0775649
17	0x3dc4ebd8	0.09615296
18	0xbe4ae8cf	-0.19815372
19	0xbec1c8fb	-0.37848648
20	0xbd878e4d	-0.066189386
21	0x3f82f743	1.0231708
22	0xbd99e849	-0.07515008
23	0xbe547b51	-0.20750166
24	0x3db832a2	0.089940324
25	0x3c8078bc	0.01568257
26	0xbcc97308	-0.024590984
27	0x3e888867	0.26666567
28	0x3bde81d2	0.006790378
29	0x3e3bd48f	0.18342803
30	0xbeee837a	-0.46584684
31	0xbf073b97	-0.528253
32	0x3c8265a0	0.0159176
33	0xbe569bb6	-0.20957837
34	0xbdc421de	-0.09576772
35	0xbc78e745	-0.015191858
36	0x3e89e51c	0.2693261
37	0x3e8dcbfb	0.27694687
38	0x3e94c9a7	0.290601
39	0x3e34ec3f	0.17668246
40	0x3e3f1963	0.18662028
41	0xbd94ec98	-0.07271689
42	0xbea439da	-0.32075387
43	0xbd862ae8	-0.065511525
44	0x3df9655d	0.12177537
45	0xbe3a38d0	-0.18185735
46	0xbe75ae44	-0.23992258
47	0xbe8794a7	-0.264806
48	0xbecb2cf1	-0.39682725
49	0xbe804137	-0.25049755
50	0xbd3b859e	-0.045781724
51	0x3f0cfa49	0.55069405
52	0xbe80bdf0	-0.2514491
53	0x3dbc0f75	0.09182636
54	0x3de21350	0.1103884
55	0xbdec60da	-0.115419105
56	0x3aa84c2f	0.0012840087
57	0xbcc32108	-0.023819461
58	0x3dd0615b	0.10174819
59	0xbd936113	-0.0719625
60	0x3c3fe93f	0.011713325
61	0x3f8626af	1.0480555
62	0x3de87e82	0.113522545
63	0xbeaee04b	-0.34155497
64	0x3cefb15d	0.029259378
65	0xbdb32eb5	-0.08749143
66	0x3c978004	0.01849366
67	0x3e014e99	0.12627639
68	0x3e05b712	0.13058117
69	0xbd4c0f39	-0.049819205
70	0xbe9df211	-0.30848745
71	0x3dac4b49	0.08412797
72	0x3e4e0028	0.20117247
73	0x3e8ee7e4	0.27911294
74	0x3e943546	0.28946894
75	0xbd98ddd9	-0.07464189
76	0xbe74dc47	-0.23912154
77	0x3daf85e3	0.08570459
78	0xbe63eec2	-0.22259048
79	0xbe489091	-0.19586398
80	0x3ea181bd	0.31544295
81	0x3eb26d02	0.3484879
82	0xbe1d242a	-0.15345827
83	0x3e2f1ba5	0.1710039
84	0xbec5f862	-0.38666064
85	0xbe7b447a	-0.2453784
86	0xbeb47d16	-0.35251683
87	0xbe28a295	-0.1646827
88	0x3e429ab1	0.19004323
89	0xbe8d18b4	-0.2755791
90	0xbf434f5a	-0.76292956
91	0xbf3d241c	-0.73883224
92	0xbe75a752	-0.23989609
93	0xbc7dac20	-0.015482932
94	0xbd7167c2	-0.05893684
95	0x3e2106fd	0.15725322
96	0x3da04254	0.07825151
97	0x3e965331	0.29360345
98	0x3e86e767	0.2634842
99	0xbe8ae9f6	-0.27131623
100	0x3efe7c56	0.49704236
101	0x3eca1840	0.39471626
102	0x3df2f0cc	0.118623346
103	0xbb9dc4b2	-0.0048147077
104	0xbcdb5dfe	-0.026778217
105	0xbd0b16b1	-0.033957187
106	0x3d727cee	0.059201173
107	0x3e9d71c3	0.30750856
108	0xbd8e72f9	-0.06955523
109	0xbe80fd65	-0.25193325
110	0xbe9d0a45	-0.30671898
111	0xbde59e28	-0.112118065
112	0x3e0e2e39	0.1388482
113	0x3ea797bb	0.3273295
114	0xba6ad322	-0.0008957853
115	0xbdd1d46c	-0.102455944
116	0xbe809129	-0.25110748
117	0x3d002aa1	0.031290654
118	0x3cdf52bb	0.027261129
119	0x3dd726ef	0.10505473
120	0x3f26ec98	0.65204763
121	0x3e888546	0.2666418
122	0xbe8809ae	-0.26569885
123	0x3e032f9d	0.12811132
124	0xbe106ede	-0.14104792
125	0x3d4437f1	0.047904912
126	0x3cd41fc9	0.025894063
127	0x3e51c6f5	0.20486052
128	0xbe0f7b87	-0.14011966
129	0x3e06949f	0.13142632
130	0x3f57ea4b	0.8434188
131	0xbe81ad06	-0.2532732
132	0xbe45776c	-0.19283837
133	0xbbf7dc22	-0.0075640837
134	0x3e9c743e	0.30557436
135	0x3e15faea	0.14646497
136	0x3d286e78	0.041120976
137	0x3e7053f3	0.23469524
138	0x3e3eec0c	0.18644732
139	0xbe38d9ef	-0.18051885
140	0x3ef47174	0.47742808
141	0xbf1436bb	-0.5789601
142	0xbe556266	-0.20838317
143	0x3e011ff2	0.12609842
144	0xbb8ed589	-0.0043589515
145	0x3ea27b17	0.31734535
146	0x3e86bb2c	0.26314676
147	0x3da91214	0.08255401
148	0x3e2000dc	0.15625328
149	0x3cfb3e88	0.030669466
150	0x3ee38eab	0.44444785
151	0xbe1d56d2	-0.1536515
152	0x3eb73152	0.35779816
153	0x3e80a16f	0.25123164
154	0xbefd77d2	-0.49505478
155	0xbd695f05	-0.056975383
156	0xbe24a330	-0.16077876
157	0xbd8f19ff	-0.0698738
158	0x3ec0b270	0.37636137
159	0xbe5f0e49	-0.21782793
160	0xbe8a5df6	-0.27024812
161	0xbebf8337	-0.37404796
162	0x3e0313d1	0.12800528
163	0x3e3d0d4e	0.18462107
164	0xbe115ae5	-0.1419483
165	0x3e6f9603	0.23397069
166	0xbe720730	-0.23635554
167	0xbcba02ef	-0.022706477
168	0x3e5477f6	0.20748886
169	0x3e8730f9	0.2640455
170	0xbf33fa4e	-0.7030381
171	0x3f009bf5	0.5023797
172	0xbe2dbe41	-0.16967107
173	0xbd8f3e5d	-0.06994317
174	0xbd2a7a7d	-0.04162072
175	0x3d97180c	0.073776335
176	0x3e853746	0.26018733
177	0xbc3f0bbb	-0.011660512
178	0x3cf41096	0.029793065
179	0x3db8ca67	0.0902298
180	0x3e890c83	0.26767358
181	0x3e4bc519	0.19899406
182	0xbe5497ca	-0.20761028
183	0xbe802eee	-0.25035805
184	0x3d46852b	0.048466843
185	0xbdae8579	-0.08521552
186	0x3dc8ad41	0.097986706
187	0x3e606bcf	0.21916126
188	0x3ea98102	0.33106238
189	0xbeb0573c	-0.34441555
190	0xbf3d7313	-0.74003714
191	0xbf504d89	-0.8136831
192	0xbd3c58b9	-0.04598305
193	0x3e15ef3a	0.14642039
194	0x3d4d254d	0.0500844
195	0xb9f60f35	-0.00046932106
196	0xbc1f694b	-0.009729694
197	0xbe83a839	-0.2571428
198	0x3dcd2ae0	0.100179434
199	0x3e25c43e	0.16188142
200	0x3a5fbf76	0.0008535305
201	0x3e8877ed	0.26653996
202	0x3e431b78	0.19053447
203	0xbdbf2456	-0.093331024
204	0x3db3b946	0.087755725
205	0x3d4a17d2	0.049339123
206	0x3e7e3d56	0.24828085
207	0xbdfbe91f	-0.12300324
208	0xbd2d8d66	-0.042371176
209	0x3bffd270	0.0078070685
210	0xbec65bf3	-0.38742027
211	0x3f1e162f	0.617526
212	0xbcecc799	-0.02890377
213	0x3e51d561	0.20491554
214	0xbe7cba71	-0.24680497
215	0x3e923b1b	0.2856072
216	0x3d520f1d	0.051283944
217	0x3e846031	0.25854638
218	0x3db8698c	0.090045065
219	0x3db9f857	0.0908057
220	0x3eb62339	0.35573748
221	0xbe229ead	-0.15880843
222	0x3ead3a85	0.3383371
223	0x3d9e51fa	0.077304795
224	0xbecd5f2c	-0.40111673
225	0x3deebaad	0.11656699
226	0xbe7ef92c	-0.24899739
227	0x3ec138ce	0.3773865
228	0xbe8da1a6	-0.2766239
229	0x3e68e3c8	0.22743142
230	0xbf0435d9	-0.51644665
231	0x3ea3adce	0.3196854
232	0xbe5cbdd1	-0.21556784
233	0xbda7b838	-0.08189434
234	0x3e821d30	0.25412893
235	0xbd4d5f13	-0.050139498
236	0x3e389d95	0.18028863
237	0x3cecc07a	0.028900374
238	0xbeab35a9	-0.33439377
239	0xbe47fe20	-0.19530535
240	0x3c86a1ea	0.016434629
241	0xbe171038	-0.1475228
242	0xbcc76fc7	-0.024345292
243	0xbc7a9e46	-0.015296524
244	0x3e2a3f9b	0.16625826
245	0x3e253e72	0.16137102
246	0x3e181244	0.14850718
247	0xbe551187	-0.20807467
248	0xbe35636c	-0.17713708
249	0x3e4d9636	0.20076832
250	0x3f4d65e5	0.80233604
251	0xbf1dbd41	-0.61616904
252	0x3dde1b8a	0.108450964
253	0xbcf8f2a9	-0.030389147
254	0x3e47bf29	0.19506516
255	0x3e0824ff	0.13295363

set_to_set.0.bias f4 [128]
0	0xbe5db658	-0.2165159
1	0x3c8fb569	0.017542558
2	0xbcf2970d	-0.029613042
3	0x3ebedd84	0.37278378
4	0xbec17d4a	-0.377909
5	0x3ee96426	0.4558422
6	0x3eafd304	0.3434068
7	0xbe4b24fc	-0.19838327
8	0x3d2322c3	0.039828073
9	0xbe946557	-0.28983566
10	0xbe10d613	-0.14144163
11	0xbe27b1dd	-0.16376443
12	0xbe81602b	-0.25268683
13	0xbe87a239	-0.26490954
14	0x3e5de994	0.21671134
15	0xbdbb86a4	-0.0915654
16	0x3e4bbad8	0.19895494
17	0xbe9dccbf	-0.3082027
18	0xbe98999b	-0.29804692
19	0xbec14849	-0.37750462
20	0xbef61c64	-0.48068535
21	0x3e0df452	0.13862732
22	0x3ea5ad26	0.32358664
23	0x3d8e610d	0.06952105
24	0xbea52091	-0.3225141
25	0x3cc193e5	0.023630092
26	0xbe8c7441	-0.27432445
27	0xbe665795	-0.22494347
28	0x3e1846c4	0.14870745
29	0xbdf27edd	-0.118406035
30	0xbdb3b7d5	-0.087752976
31	0xbed7b5b2	-0.4213081
32	0xbe8e5f22	-0.27806956
33	0xbe59e28f	-0.21277831
34	0xbe75ae9b	-0.23992388
35	0xbe21cfbd	-0.15801902
36	0x3c4b7d54	0.012420017
37	0x3e2f909f	0.17145012
38	0xbdec751d	-0.11545775
39	0x3e96fdd5	0.29490533
40	0xbeb8f4e0	-0.36124325
41	0x3f07cdbf	0.5304832
42	0xbe7e97af	-0.2486255
43	0xbee83900	-0.45355988
44	0x3eb0ea91	0.3455396
45	0x3edfae25	0.4368755
46	0x3e40e331	0.18836667
47	0x3ebd392e	0.36957687
48	0xbe457b74	-0.19285375
49	0x3dd01cd3	0.10161748
50	0x3eaca934	0.33722842
51	0xbe80ae46	-0.2513296
52	0x3e9b77d2	0.30364853
53	0x3d63a1e1	0.0555743
54	0x3dffb8e8	0.1248644
55	0xbe176c91	-0.14787509
56	0xbe9aa465	-0.30203548
57	0xbf0ae9c5	-0.54262954
58	0x3dc41e3b	0.095760785
59	0x3eafa585	0.3430597
60	0x3dd3083f	0.10304307
61	0xbeedb355	-0.46425882
62	0x3e9a18b5	0.30096975
63	0x3eb56b66	0.354335
64	0xbe3fecc3	-0.18742661
65	0x3c3a7ac5	0.01138181
66	0x3ebe20d8	0.37134433
67	0xbde738de	-0.112901434
68	0xbf06fe74	-0.52732015
69	0xbec6abef	-0.3880305
70	0x3c8072f5	0.015679816
71	0xbe7c33de	-0.24629161
72	0xbe070720	-0.13186312
73	0xbe3fa5e9	-0.18715633
74	0x3deb73b9	0.11496682
75	0xbe464237	-0.19361196
76	0x3ecedfd3	0.4040514
77	0x3d5e9e46	0.05435016
78	0xbea8df51	-0.32982877
79	0xbea2074e	-0.31646198
80	0xbe7ffdc5	-0.24999149
81	0xbe103e8e	-0.14086363
82	0xbe0a0ac7	-0.13480674
83	0x3d5155ee	0.05110734
84	0x3d62ced1	0.055373017
85	0xbe5e2dc5	-0.21697147
86	0xbd793c3e	-0.060848467
87	0x3e708d7d	0.23491473
88	0xbe87e5ab	-0.2654241
89	0x3ea79d84	0.32737362
90	0xbe0ca3a5	-0.137343
91	0x3e1ac8e9	0.15115704
92	0x3ca8dc04	0.020612724
93	0x3e9228cd	0.28546754
94	0x3e51c3e7	0.20484887
95	0x3e5e5341	0.21711446
96	0x3e7b524e	0.24543115
97	0x3ea35e51	0.31907895
98	0xbdc120a1	-0.094300516
99	0xbcfca6b5	-0.03084121
100	0xbedc2715	-0.42998567
101	0x3ef0bbc4	0.47018254
102	0x3cb019d9	0.0214967
103	0x3d09e76e	0.033667974
104	0xbeabed99	-0.3357971
105	0x3e582739	0.21108712
106	0xbec53178	-0.38514304
107	0x3c1b1550	0.0094655305
108	0x3e2c85d8	0.16847932
109	0xbe3d7eff	-0.18505476
110	0x3df9b8ee	0.12193476
111	0x3ea3d472	0.3199802
112	0xbec8bab9	-0.39204958
113	0xbe24ae2f	-0.16082071
114	0x3cb0bba0	0.021573842
115	0x3cd31917	0.0257688
116	0x3eb2ee9f	0.34947678
117	0xbd07ad1f	-0.033124086
118	0xbd0f16c1	-0.03493381
119	0x3e9ba6a4	0.30400574
120	0x3dd6d9b8	0.10490745
121	0x3e68c635	0.2273186
122	0x3e925672	0.28581578
123	0xbec6da47	-0.38838407
124	0x3e952e09	0.29136685
125	0x3e88ab31	0.2669311
126	0xbd071285	-0.032976646
127	0xbf0467bc	-0.51720786

set_to_set.2.weight f4 [128, 128]
0	0x3ccaeff5	0.024772624
1	0x3aaaece3	0.0013040568
2	0xbc365145	-0.011127775
3	0x3d8838d2	0.066514626
4	0xbd641b24	-0.055689946
5	0xb9c31bc0	-0.00037213974
6	0xbd8ce25a	-0.06879111
7	0xbd95ba18	-0.07310885
8	0x3d8e32c2	0.06943275
9	0xbbcade7f	-0.0061910744
10	0xbdbe0de7	-0.092799954
11	0x3c749014	0.014926929
12	0x3cddab9b	0.027059367
13	0xbd3553dd	-0.04426943
14	0x3da65777	0.08122151
15	0x3da9b4ee	0.08286463
16	0xbd8cc026	-0.06872587
17	0xbc89bc5c	-0.01681345
18	0xbd92a855	-0.07161013
19	0xbde1dc9d	-0.11028407
20	0x3c964a12	0.018345866
21	0xbb9c3d76	-0.004768069
22	0x3d0dc57c	0.034612164
23	0x3bf6c3bd	0.007530658
24	0x3cb2aa64	0.021809764
25	0x3c160a77	0.009157768
26	0x3b4f543e	0.0031635906
27	0x3d2c8a6e	0.042124204
28	0x3d93f2de	0.072240576
29	0x3be25ef9	0.0069082943
30	0x3d4ef742	0.050528772
31	0xbcfd5a4e	-0.03092685
32	0x3bcb22f5	0.0061992356
33	0x3c68fb5d	0.014220086
34	0xbbd36039	-0.0064506796
35	0xbd38e8e4	-0.045143977
36	0xbd974029	-0.073852845
37	0x3d605b66	0.054774664
38	0x3c59468a	0.013261447
39	0x3d8e2eb8	0.06942505
40	0xbd820197	-0.063479595
41	0x3d2866ac	0.04111354
42	0xbd6cf93c	-0.057854876
43	0x3d123961	0.035699252
44	0x3d82c05a	0.063843444
45	0x3dbb882a	0.091568306
46	0x3d606fa8	0.054793984
47	0x3d7e7421	0.062122468
48	0x3d9c85af	0.076426856
49	0xbd376562	-0.04477442
50	0xbb7cb494	-0.0038559781
51	0xbd7bb815	-0.06145485
52	0x3d694f2e	0.056960277
53	0xbd0d5a12	-0.034509726
54	0xbc5991b3	-0.013279366
55	0x3dd37a62	0.10326077
56	0xbc913b35	-0.017728427
57	0x3d471895	0.048607428
58	0xbdb20b86	-0.08693604
59	0xbcf91100	-0.030403614
60	0x3cc73440	0.024316907
61	0x3bb70aab	0.0055859885
62	0xbd87ceff	-0.06631278
63	0x3d75bc9f	0.059994336
64	0xbd611d5e	-0.054959647
65	0x3d1a8985	0.037728805
66	0x3d450f18	0.048110098
67	0xbd646fae	-0.05577057
68	0xbde6211c	-0.11236784
69	0xbc1a27a2	-0.009408863
70	0x3d791eab	0.060820263
71	0x3addedb9	0.0016931809
72	0xbc7c4c3e	-0.015399037
73	0xbd368dac	-0.044568703
74	0xbdd275ae	-0.10276352
75	0x3dae7752	0.08518852
76	0xbd3df439	-0.046375487
77	0x3db75548	0.08951813
78	0xbd966d82	-0.07345106
79	0xbc0db9e1	-0.008650274
80	0xbd88b058	-0.0667426
81	0xbc77a1d0	-0.015114263
82	0x392f0142	0.00016689769
83	0xbd981b39	-0.07427067
84	0xbcf31674	-0.029673792
85	0x3c0d9270	0.00864087
86	0x3daa2a57	0.08308857
87	0x3d021a4b	0.031763356
88	0xbc4528ea	-0.01203368
89	0xbcc2e4c8	-0.023790732
90	0xbdae4257	-0.08508747
91	0x3d81d8c1	0.06340171
92	0x3ca721e9	0.020401912
93	0xbda6a83c	-0.08137557
94	0x3cd0c665	0.025485227
95	0x3d6c251b	0.057652574
96	0x3d832293	0.06403079
97	0x3db35117	0.08755701
98	0x3cd8faa6	0.026486706
99	0xbd3f54e9	-0.046711836
100	0xbda400ce	-0.08007966
101	0xbd0b7582	-0.03404761
102	0x3cd2b768	0.02572222
103	0x3db074a3	0.08615997
104	0x3d972236	0.07379572
105	0xbd8d3fce	-0.068969354
106	0xbdc0d46f	-0.094155185
107	0xbcaa6881	-0.020801784
108	0x3d196df2	0.037458368
109	0x3d81250f	0.063058965
110	0xbda650cc	-0.081208795
111	0x3d33804e	0.043823533
112	0xbbdc89f5	-0.006730313
113	0xbbb8763f	-0.0056293304
114	0xbc7deab4	-0.015497852
115	0x3d138016	0.036010824
116	0x3d1b5828	0.03792587
117	0x3daa4a57	0.083149604
118	0x3df8916f	0.12137114
119	0xbd6763c9	-0.056491647
120	0x3d82dc3a	0.06389661
121	0x3d3be3b4	0.04587145
122	0x3c7b341e	0.01533225
123	0x3d59fb96	0.053218447
124	0xbcc0a478	-0.023515925
125	0xbd8213ab	-0.063514076
126	0xbd837176	-0.06418125
127	0x3d6858fe	0.056725495
128	0xbcacf605	-0.021113405
129	0xbd4063ba	-0.046970107
130	0x3d39ddc4	0.045377508
131	0xbd08d012	-0.033401556
132	0xbcc7670d	-0.02434113
133	0x3d88c3e1	0.06677986
134	0xbd6da51f	-0.0580188
135	0x3d90baf8	0.070669115
136	0xbce9ba18	-0.02853112
137	0xbdd198f9	-0.10234255
138	0x3c8a07cf	0.016849427
139	0x3ca1f2bd	0.019769067
140	0x3cb6981a	0.022289325
141	0x3e2c24d1	0.1681092
142	0xba8015b7	-0.0009772097
143	0xbe3b95dc	-0.18318886
144	0x3d6287fb	0.055305462
145	0xbc071ffc	-0.008247372
146	0x3c7cec1f	0.015437155
147	0x3e0390ea	0.12848249
148	0x3d44ae1d	0.04801761
149	0xbd218e49	-0.039442334
150	0xbdc1428b	-0.0943652
151	0xbd6f0b9a	-0.058360673
152	0xbda66b5c	-0.08125946
153	0x3d705e4e	0.058683686
154	0xbd19dec3	-0.037565958
155	0x3d9b60d0	0.07586825
156	0xbdb00c75	-0.08596126
157	0xbb975061	-0.004617736
158	0xbd0800cf	-0.033203896
159	0x3d65512d	0.05598562
160	0x3aaadf0b	0.0013036443
161	0x3d64d9bf	0.05587172
162	0xbdc6bba3	-0.097037576
163	0x3d4aab71	0.049479906
164	0xbd8193f8	-0.06327051
165	0xbd910693	-0.07081332
166	0x3d13e011	0.03610236
167	0x3aa4d963	0.0012576993
168	0xbcfc054b	-0.030764243
169	0xbc32b43f	-0.010907232
170	0x3e1c8c17	0.15287815
171	0x3d80d2c6	0.06290202
172	0xbd253f2a	-0.04034344
173	0xbe1d175f	-0.15340947
174	0xbcc5d621	-0.024149956
175	0xbdaadc47	-0.08342796
176	0x3bd75811	0.0065717776
177	0xbc92b4ea	-0.017908532
178	0xbdb0a1c6	-0.08624606
179	0x3d509f11	0.050932948
180	0x3d8d7166	0.06906395
181	0xbd0a4813	-0.03376014
182	0xbdd45636	-0.10368006
183	0xbd235976	-0.03988024
184	0xbd8a0072	-0.06738366
185	0x3d2abee4	0.041685954
186	0xbd00cc66	-0.03144493
187	0xbdbb3ffb	-0.09143063
188	0xbdaa8dec	-0.08327851
189	0x3d57a0b3	0.05264349
190	0xbc7c4e4e	-0.015399529
191	0xbcdeea2d	-0.027211273
192	0xbd6f1405	-0.0583687
193	0x3dc0c1dd	0.094119765
194	0xbe3acdc9	-0.18242563
195	0x3d36e5b5	0.04465266
196	0x3e21e1f0	0.15808845
197	0x3d315445	0.043293256
198	0xbda2b4f8	-0.07944673
199	0x3cb57b4d	0.022153521
200	0x3ad6b600	0.0016381145
201	0xbd42b43a	-0.04753516
202	0x3dc872a0	0.09787488
203	0xbd9019b8	-0.070361555
204	0xbd3b297d	-0.045693863
205	0xbda35d04	-0.07976726
206	0x3d0bbd7e	0.03411626
207	0xbd792e16	-0.060834967
208	0x3e4f0d38	0.20219886
209	0x3d63c6ad	0.055609394
210	0xbbd4db8c	-0.0064958986
211	0x3def8167	0.116946034
212	0x3db482ba	0.088139966
213	0xbdced0a4	-0.10098389
214	0xbd131b07	-0.035914447
215	0x3d8562d7	0.06512993
216	0xbd133c8d	-0.035946418
217	0xbd902424	-0.07038143
218	0x3c08ac54	0.0083418675
219	0xbd9c2088	-0.07623392
220	0xbcc22ec3	-0.023703938
221	0xbe04d46f	-0.12971662
222	0xbc8e45b9	-0.01736723
223	0xbaf542cd	-0.0018711925
224	0xbc04232c	-0.008065026
225	0xbc779894	-0.015112061
226	0x3e11125a	0.14167157
227	0xbd3d00d3	-0.046143364
228	0x3dca4f26	0.098783776
229	0x3d9dd764	0.07707098
230	0xbc875ce0	-0.016523778
231	0xbcd0f173	-0.025505757
232	0xbcff1593	-0.031138217
233	0x3d85709f	0.065156214
234	0x3e7a2dda	0.24431553
235	0xbd9c6c2f	-0.07637822
236	0xbcb56bee	-0.022146191
237	0xbd8b91d3	-0.06814923
238	0x3d7842bd	0.06061052
239	0x3d93ed21	0.07222963
240	0x3d00ae1c	0.031416044
241	0xbd5e1fb1	-0.054229442
242	0x3d189d26	0.037259243
243	0x3d9a3808	0.07530218
244	0x3c838989	0.016056793
245	0xbdc1d206	-0.09463887
246	0xbda871ab	-0.082248054
247	0x3c69d59a	0.014272118
248	0x3c35e412	0.0111017395
249	0xbd8ea28e	-0.069645986
250	0xbdcfe219	-0.101505466
251	0xbdb153d5	-0.08658568
252	0x3cd26321	0.025682034
253	0x3d612708	0.054968864
254	0xbc11de9f	-0.008903175
255	0xbc1e34a9	-0.00965611

set_to_set.2.bias f4 [128]
0	0x3e7d681a	0.24746743
1	0xbe1ea3c1	-0.15492155
2	0x3e5c8ef8	0.21538913
3	0xbe1198a5	-0.14218386
4	0xbe095b45	-0.13413723
5	0xbe6d1607	-0.23152934
6	0x3d973b69	0.073843785
7	0x3e79f594	0.24410087
8	0x3e282d40	0.16423512
9	0x3dfad91b	0.12248441
10	0x3c6bb0b5	0.014385392
11	0x3d2af391	0.04173619
12	0x3db55aa3	0.08855178
13	0xbd31fe46	-0.043455385
14	0x3d0d723f	0.03453278
15	0xbe0d3543	-0.13789849
16	0xbd9104ca	-0.070809916
17	0x3b80595d	0.003916903
18	0x3df2dd02	0.1185856
19	0x3e805721	0.25066474
20	0xbde9e83f	-0.114212506
21	0x3e262925	0.16226633
22	0x3e0a2fa2	0.13494733
23	0x3d5384ee	0.051640444
24	0x3e14c955	0.14529927
25	0xbe4146e5	-0.188747
26	0xbdec6deb	-0.11544403
27	0x3df61195	0.12015072
28	0xbe31e8a4	-0.17373902
29	0xbd39da20	-0.045374036
30	0xbdd715ae	-0.10502182
31	0xbdef7d69	-0.11693842
32	0x3e24ecfd	0.16106029
33	0x3986cd53	0.0002571145
34	0x3d9d9d85	0.0769606
35	0x3e1e992d	0.1548812
36	0xbe998366	-0.29983062
37	0xbd5dd8d5	-0.054161865
38	0x3d9245c5	0.07142214
39	0x3d359da9	0.04433981
40	0x3da4a165	0.08038596
41	0xbd1783ac	-0.036990806
42	0xbe100699	-0.14065017
43	0xbd99ba0a	-0.07506187
44	0x3bd04740	0.00635615
45	0x3d19ae24	0.03751959
46	0x3e78d38a	0.24299446
47	0xbd5b12c1	-0.053484682
48	0xbd9f29ac	-0.0777162
49	0xbe1f028a	-0.15528312
50	0x3d7c2875	0.06156202
51	0xbd881610	-0.06644833
52	0xbdb5f680	-0.08884907
53	0x3e06168d	0.1309454
54	0x3e1d7f6e	0.15380642
55	0xbe6c1180	-0.2305355
56	0x3e0176e0	0.12643003
57	0x3dd960fa	0.106142
58	0x3dce3196	0.100680515
59	0xbd66a2d3	-0.056307625
60	0xbdeaab0f	-0.11458408
61	0xbdf48035	-0.11938516
62	0xbe20ccc9	-0.1570312
63	0x3dd74b45	0.105124034
64	0x3d9ee8ba	0.07759233
65	0xbd65f62e	-0.05614298
66	0xbe50f7f0	-0.2040708
67	0x3e7bd9bc	0.24594778
68	0xbd0a7c6c	-0.033810064
69	0x3c5b04bc	0.013367828
70	0xbc5ca52d	-0.013467115
71	0xbe7d028d	-0.24708004
72	0xbe5066f9	-0.20351781
73	0x3e9e519c	0.30921638
74	0xbe2d7548	-0.1693927
75	0xbdde01fd	-0.10840223
76	0x3def18a4	0.11674622
77	0x3b3004ef	0.002685841
78	0xbd75a0ce	-0.05996781
79	0x3db00d7c	0.08596322
80	0x3dbadebd	0.09124515
81	0x3dbc573b	0.091963254
82	0x3e512d8d	0.20427532
83	0x3e3e992e	0.18613121
84	0xbd80929d	-0.06277964
85	0x3d9cef4d	0.076628305
86	0xbdee8197	-0.11645811
87	0xbe1d4b95	-0.15360864
88	0xbe0487e4	-0.12942463
89	0x3dc6ebba	0.0971293
90	0x3e030d8c	0.12798136
91	0x3e8be362	0.27321917
92	0x3b86cfd5	0.004114131
93	0x3d0964b3	0.0335433
94	0x3e2c2b26	0.16813335
95	0xbe1bc206	-0.15210733
96	0x3e806103	0.25074014
97	0x3e351f74	0.1768778
98	0x3bdd4892	0.006753036
99	0xbda8bbe0	-0.08238959
100	0x3e55b41b	0.20869486
101	0xbe7b55f6	-0.2454451
102	0x3e8b4a2a	0.2720502
103	0x3e2867af	0.16445802
104	0x3e4f1693	0.20223455
105	0x3dfed42b	0.124428116
106	0x3e81ee3a	0.25377065
107	0x3dbf2534	0.09333268
108	0xbbf05442	-0.007334263
109	0x3e07d1d9	0.13263644
110	0xbcd6014a	-0.026123662
111	0xbdea9b6b	-0.11455425
112	0x3ddd75c5	0.108134784
113	0x3de64597	0.11243742
114	0x3e1eb619	0.15499152
115	0x3e0b6fb6	0.13616833
116	0xbe3c740f	-0.18403648
117	0xbde701f3	-0.11279669
118	0x3bbe2d12	0.0058037126
119	0xbe6653cc	-0.22492903
120	0x3e43462a	0.19069734
121	0x3ea0b005	0.31384292
122	0xbc39f159	-0.011349046
123	0xbd8eb320	-0.06967759
124	0xbe0d4604	-0.1379624
125	0xbe224fc0	-0.15850735
126	0xbe5157da	-0.20443669
127	0xbe5b66dc	-0.21425956

edge_classifier.0.weight f4 [128, 256]
0	0x3d25f0c4	0.040512815
1	0x3ca950bc	0.02066838
2	0xbb45680a	-0.0030121827
3	0xbd533845	-0.051567335
4	0x3c6018f7	0.013677827
5	0x3d318f13	0.043349337
6	0xbca9fc15	-0.020750085
7	0xbc3e55d1	-0.01161714
8	0xb951c368	-0.00020004588
9	0xbc1328cf	-0.0089818975
10	0x3d2b8ca5	0.041882176
11	0x3d2f8901	0.042855266
12	0x3d8c1ffa	0.068420365
13	0xbd7db79d	-0.061942685
14	0xbd8fb76a	-0.07017405
15	0xbd069d51	-0.032864872
16	0x3d0a2b81	0.033732895
17	0x3d7e9302	0.062151916
18	0x3c61c5c4	0.013780061
19	0xbd807293	-0.06271853
20	0x3cebcabf	0.0287832
21	0x3c31f4ab	0.010861556
22	0xbd8e4453	-0.069466256
23	0x3c92ea3c	0.017933957
24	0xbd0c41f7	-0.034242596
25	0xbc191ad7	-0.009344778
26	0xbcc74e7c	-0.024329416
27	0x3c3b6c32	0.01143937
28	0xbbe947c1	-0.0071191494
29	0xbc585282	-0.013203265
30	0x3d31aa10	0.043375075
31	0x3cfa7b7d	0.030576462
32	0xbd78103e	-0.060562365
33	0x3cd65e52	0.026168022
34	0x3d3189f3	0.04334445
35	0xbc068e35	-0.008212616
36	0xbd2a8a5c	-0.041635856
37	0x3d079021	0.033096436
38	0x3cb162f2	0.021653626
39	0x3d33fc4a	0.043941773
40	0x3cdca963	0.026936239
41	0x3d5554f8	0.052082986
42	0xbc06edbd	-0.008235392
43	0xbd23fa0b	-0.04003338
44	0x3cbd5d88	0.023115888
45	0x3d510d40	0.051038027
46	0x3c8c6534	0.017138101
47	0x3ce9fb23	0.028562134
48	0xbc093e47	-0.0083766645
49	0x3d67f4f0	0.056630075
50	0xbc8f1fa3	-0.01747114
51	0x3d9e240e	0.07721721
52	0xbcfc1c2a	-0.030775148
53	0x3ae0164c	0.0017096489
54	0xbd098cf1	-0.033581678
55	0xbd4493ed	-0.047992636
56	0x3cce4bdf	0.025182663
57	0x3d51845a	0.05115161
58	0x3ce186b8	0.02753006
59	0xbd659ca2	-0.05605758
60	0x3d1b9c1c	0.037990674
61	0xbd6c5eed	-0.057707716
62	0xbd5bb296	-0.05363711
63	0xbcdb0c85	-0.026739368
64	0x3c743d68	0.0149072185
65	0xbce27abe	-0.027646419
66	0xbc814059	-0.015777754
67	0xbd4d0737	-0.05005571
68	0x3d5fa774	0.054603055
69	0x3b517f03	0.0031966574
70	0x3a9c8841	0.0011942462
71	0x3cd9a481	0.0265677
72	0x3cefcef9	0.029273497
73	0x3d41aa8e	0.047281794
74	0xbbc88baf	-0.006120167
75	0xbb8154c5	-0.003946873
76	0xbd632472	-0.05545468
77	0xbb3c71e0	-0.0028754398
78	0x3be54793	0.0069970577
79	0xbba84f89	-0.0051364345
80	0x3ab9d1c2	0.0014176893
81	0xbcb2dff0	-0.021835297
82	0x3cce54e0	0.025186956
83	0xbd1b46fa	-0.037909485
84	0xbd0c32b5	-0.034228045
85	0xbcb18e41	-0.021674277
86	0x3c79cac4	0.015246097
87	0x3d01ea30	0.03171748
88	0xbd2171fd	-0.03941535
89	0xbd351809	-0.044212375
90	0xbd321065	-0.043472666
91	0xbd718cee	-0.05897229
92	0x3d79abc4	0.060954824
93	0xbcde6eee	-0.027152505
94	0xbc50c7b5	-0.012742926
95	0x3cced5af	0.025248377
96	0xbd3fef2c	-0.04685895
97	0xbcd2b171	-0.025719376
98	0xbc750b36	-0.014956286
99	0xbd23ac58	-0.03995928
100	0xbd2bd058	-0.04194674
101	0xbd5841dd	-0.052797187
102	0xbc48cc80	-0.012255788
103	0x3d7de0e0	0.061982036
104	0x3d16845b	0.036747318
105	0xbc260b5e	-0.010134546
106	0xbb9f6957	-0.0048648524
107	0xb9e64b35	-0.00043925052
108	0x3d342ebc	0.043989882
109	0x3d70dbe0	0.05880344
110	0x3d43e284	0.047823444
111	0x3d604d68	0.05476132
112	0x3b90949a	0.004412246
113	0x3cf24705	0.02957488
114	0xbd09daf7	-0.033656087
115	0xbd5924bf	-0.05301356
116	0x3d1a0727	0.037604477
117	0xbcb70c30	-0.022344679
118	0xbd5aa21b	-0.053377252
119	0x3d94bbb6	0.072623655
120	0xbd0c3212	-0.03422744
121	0x3d0e1b38	0.034693927
122	0xbb65421c	-0.0034982031
123	0xbcd8e807	-0.026477827
124	0x3d2474e0	0.040150523
125	0xbcc81787	-0.024425281
126	0x3c5e484d	0.013567043
127	0x3d6d18e0	0.05788505
128	0xba331f18	-0.00068329414
129	0xbd0cead3	-0.034403633
130	0x3d39e95d	0.04538857
131	0x3d0c3622	0.034231313
132	0xbce9b491	-0.028528484
133	0xba4387a7	-0.00074588734
134	0x3d8c40f7	0.068483286
135	0x3d8b447f	0.06800174
136	0xbaa1543d	-0.001230843
137	0x3c36a765	0.011148308
138	0xbd82dbec	-0.06389603
139	0x3d4e2639	0.05032942
140	0x3bccabf7	0.0062460857
141	0x3bee0b35	0.0072645196
142	0x3aad9261	0.0013242477
143	0xbc52aba8	-0.012858309
144	0x3cef2b26	0.02919538
145	0x3d34faef	0.04418462
146	0xbcf0e56e	-0.029406276
147	0xbd55d14f	-0.052201565
148	0xbc96148e	-0.018320348
149	0xbd5b0846	-0.053474687
150	0xbcbdb55d	-0.02315777
151	0xb8ff012a	-0.00012159564
152	0x3c0af7c0	0.00848192
153	0xbbaf65f1	-0.0053527285
154	0xbcc51629	-0.024058418
155	0xbc976b55	-0.018483797
156	0xbd1009f0	-0.035165727
157	0xbbf84fe3	-0.0075778826
158	0xbcc0170f	-0.023448495
159	0x3d4873cb	0.048938554
160	0x3cf37267	0.029717637
161	0xbcc28470	-0.023744792
162	0xbd810f11	-0.06301702
163	0x3ca97fc2	0.020690802
164	0x3cd9fee6	0.026610803
165	0x3d5ac50e	0.053410582
166	0xbd12fcf0	-0.03588575
167	0x3d9c162b	0.07621416
168	0xba0b1d16	-0.00053067633
169	0xbd0e3af5	-0.034724195
170	0xbc4e57c3	-0.012594166
171	0x3c3be227	0.011467493
172	0xbd0f15ba	-0.03493283
173	0xbcff27cf	-0.031146912
174	0x3d3f8558	0.046758026
175	0x3d22c430	0.03973788
176	0xbd465c02	-0.04842759
177	0x3d5ed79a	0.054404832
178	0xbb8ffb6a	-0.0043939846
179	0xbca61422	-0.020273272
180	0xbd2c08bd	-0.04200052
181	0xbbb9b216	-0.0056669815
182	0xbb9c83e1	-0.0047764634
183	0x3d544493	0.05182321
184	0x3ce86733	0.028369522
185	0x3d1b546f	0.03792232
186	0x3c212c6e	0.009837253
187	0x3cf390d5	0.029732147
188	0x3cc23fa9	0.023711996
189	0x3d4154a3	0.047199856
190	0x3d35f3a4	0.044421807
191	0xbd8e6736	-0.0695328
192	0xbca16571	-0.019701691
193	0xbd20638f	-0.039157446
194	0x3d4434d1	0.047901932
195	0x3ca73104	0.020409115
196	0xbc81d1d5	-0.015847126
197	0x3cb6f6b4	0.022334434
198	0xbca4f7ca	-0.020137686
199	0xbd822133	-0.063539885
200	0x3c6879af	0.014189168
201	0x3d58fb30	0.052973926
202	0xbb99f1f5	-0.004698033
203	0xbd1311a2	-0.035905488
204	0x3bf197c1	0.007372827
205	0x3d182dd7	0.03715309
206	0xbd5f78bf	-0.05455851
207	0xbcaf4d30	-0.02139911
208	0x3c4c7b7e	0.012480615
209	0x3d77a944	0.06046416
210	0xbd4544bd	-0.048161257
211	0x3c91fd50	0.017820984
212	0xbd168318	-0.036746114
213	0xbd33ff85	-0.043944854
214	0x3ccefaa1	0.025265994
215	0x3d2a54e7	0.041584875
216	0xbd879baf	-0.06621491
217	0x3c980a61	0.018559637
218	0x3cc8b732	0.024501417
219	0x3db02665	0.08601073
220	0xbd806902	-0.06270029
221	0xbd4e3070	-0.050339162
222	0xbd730618	-0.059331983
223	0xbd73e187	-0.05954125
224	0xbce20b26	-0.027593207
225	0x3c42f87d	0.011900065
226	0x3c80e522	0.015734259
227	0xbd7998cb	-0.06093673
228	0x3cdc4a60	0.026890934
229	0x3b42df03	0.0029734976
230	0x3bf46b33	0.007459068
231	0x3b9facd2	0.0048728967
232	0x3ce46042	0.02787793
233	0xbd457681	-0.048208717
234	0x3cae67b2	0.02128968
235	0xbbf4de78	-0.0074728094
236	0xbca9a6cd	-0.02070942
237	0x3b8a0a07	0.004212621
238	0x3cf5ac51	0.029989393
239	0x3d4dfc01	0.050289158
240	0xbc951d38	-0.01820241
241	0xbd5953b7	-0.053058352
242	0xbd1667dc	-0.03672014
243	0x3d3ba1f7	0.04580876
244	0xbd7c6ef9	-0.06162927
245	0xbd03ef7a	-0.032210805
246	0xbcca36c3	-0.024684316
247	0xbd545bcc	-0.051845357
248	0x3a2fcd39	0.0006706301
249	0xbd369346	-0.044574045
250	0x3d222c84	0.039593235
251	0x3d387251	0.045030896
252	0x3cd9df52	0.026595745
253	0x3d14644e	0.03622847
254	0xbd104adf	-0.035227653
255	0xbd277f60	-0.04089296

edge_classifier.0.bias f4 [128]
0	0xbe3a1303	-0.18171315
1	0xbef6aa0a	-0.48176605
2	0xbf0f466d	-0.55966836
3	0x3e70016c	0.23438042
4	0x3e368bd6	0.1782678
5	0x3e5a3d1f	0.21312378
6	0xbc8cac9a	-0.017172147
7	0xbe48f63f	-0.19625185
8	0x3c12e5f8	0.008965962
9	0xbdc55dde	-0.09637044
10	0x3df355a0	0.11881566
11	0xbdfb75c2	-0.1227832
12	0x3bcf553e	0.0063273003
13	0xbf07cc81	-0.53046423
14	0x3b6ebbad	0.0036427781
15	0xbda5d1a9	-0.0809663
16	0x3c4a8a1f	0.012362032
17	0x3e43e7d0	0.19131398
18	0xbd46d42c	-0.048542187
19	0x3e5120c5	0.20422657
20	0x3c964dba	0.01834761
21	0xbef2a17e	-0.47388834
22	0xbe48b9de	-0.19602153
23	0xbde1926a	-0.110142544
24	0xbeddd065	-0.43323055
25	0xbd2ceb2d	-0.04221647
26	0x3e0dc843	0.13845925
27	0xbdc4a2bc	-0.096013516
28	0x3c27d632	0.010243939
29	0x3a48e774	0.0007663884
30	0xbefecdc1	-0.49766353
31	0xbc893b28	-0.01675184
32	0x3e9b258c	0.30302083
33	0x3d7886ac	0.060675308
34	0xbd0ece10	-0.034864485
35	0xbe727e1c	-0.2368092
36	0xbd31ad4c	-0.04337816
37	0x3e5627cd	0.2091362
38	0x3e5805e6	0.21096
39	0xbed62288	-0.4182322
40	0xbefe6076	-0.4968297
41	0xbe5ceffa	-0.21575919
42	0xbe0c4d64	-0.13701397
43	0xbcbcddc9	-0.023054974
44	0xbd68fe1d	-0.056882966
45	0xbb83ef50	-0.004026331
46	0xbc9c09b2	-0.019047592
47	0x3cbb4ead	0.022864664
48	0x3e6b5d36	0.22984776
49	0xbd089799	-0.0333477
50	0x3e13c366	0.14430007
51	0x3be21920	0.006899968
52	0xbcd89b3d	-0.02644121
53	0x3e2208cb	0.15823667
54	0xbee96fcf	-0.45593116
55	0x3c6f75db	0.014615501
56	0xbe004c20	-0.1252904
57	0xbceedd8d	-0.029158378
58	0xbe29cafa	-0.16581336
59	0x3e187c38	0.14891136
60	0x3e78f5a9	0.24312462
61	0xbc82ba7a	-0.01595806
62	0xbd36a1b8	-0.04458782
63	0xbdce023f	-0.10059022
64	0xbdbe6848	-0.09297234
65	0x3cfe58f7	0.031048281
66	0xbee908df	-0.4551458
67	0xbdb99c9e	-0.090630755
68	0xbe1a9290	-0.15094972
69	0x3e416967	0.18887864
70	0xbdd5acac	-0.10433325
71	0x3d0073b9	0.03136036
72	0xbe1e80cf	-0.15478824
73	0x3e029d0d	0.12755223
74	0xbe16edcc	-0.1473915
75	0xbcbe7406	-0.023248684
76	0x3e1dd6ca	0.15413967
77	0xbe967d64	-0.2939254
78	0xbe0223d5	-0.12708981
79	0xbd9f46c5	-0.0777717
80	0xbe191a6a	-0.14951482
81	0x3c3bd24d	0.011463714
82	0x3bd71de7	0.006564844
83	0x3e060a57	0.13089882
84	0xbed6c352	-0.41945893
85	0xbe80358c	-0.25040853
86	0x3e0e7039	0.13909997
87	0xbdc28963	-0.09498861
88	0x3c0f9e82	0.008765819
89	0xbe24157f	-0.16023825
90	0xbe009c72	-0.12559679
91	0xbb995969	-0.004679848
92	0xbd5de240	-0.054170847
93	0x3c314998	0.010820769
94	0xbe28e475	-0.164934
95	0xbd79be2f	-0.06097239
96	0xbeb7e069	-0.359134
97	0x3e3ec1cb	0.18628614
98	0xbe1c57d8	-0.15267885
99	0xbe2e495e	-0.17020175
100	0x3e68dc8b	0.2274038
101	0xbe58fbdb	-0.21189825
102	0x3d54ec97	0.051983442
103	0xbe268946	-0.16263303
104	0xbebcb59d	-0.3685731
105	0xbc4baabf	-0.012430846
106	0xbdcc4bd1	-0.09975398
107	0xbe1a81ea	-0.15088621
108	0xbf13c812	-0.5772716
109	0xbac3f7d0	-0.0014951173
110	0xbde1b36d	-0.11020551
111	0x3baeb8dd	0.005332096
112	0xbe0013c3	-0.12507538
113	0xbe3b32e5	-0.18281133
114	0xbdcbb9cd	-0.09947548
115	0x3dd4d1c5	0.10391573
116	0xbc62888a	-0.013826499
117	0xbe0dddd7	-0.13854156
118	0xbe113bfc	-0.14183038
119	0x3c9e224b	0.019303462
120	0xbeb5616a	-0.35425884
121	0xbe0be196	-0.13660273
122	0x3d140466	0.036137007
123	0xbcc78da9	-0.024359541
124	0x3e059d0a	0.13048187
125	0xbd8b2700	-0.06794548
126	0xbeec9db4	-0.46214068
127	0xbd7a6831	-0.06113452

edge_classifier.2.weight f4 [1, 128]
0	0xbd44dcf9	-0.0480623
1	0x3de0c69c	0.10975382
2	0x3dce49d4	0.10072675
3	0x3d938424	0.07202938
4	0x3e043826	0.12912044
5	0x3db089a5	0.086200036
6	0xbe34c199	-0.17651977
7	0xbe7ef072	-0.2489641
8	0xbb68ccd8	-0.0035522487
9	0x3d81884e	0.06324826
10	0x3dde74e5	0.108621396
11	0xbd16597e	-0.03670644
12	0xbe08c27f	-0.13355444
13	0x3e03f399	0.12885894
14	0xbe0bf4a2	-0.13667539
15	0xbdf40688	-0.11915308
16	0xbd668f41	-0.05628896
17	0x3d9932e1	0.074804075
18	0xbd7a32b5	-0.061083514
19	0x3d745cf5	0.059658963
20	0xbc972064	-0.018448062
21	0x3de562cd	0.112004854
22	0xbd7b3c29	-0.06133667
23	0xbd9796ca	-0.074018076
24	0x3dbaf1b9	0.09128136
25	0xbd0fd070	-0.03511089
26	0x3d972978	0.073809564
27	0xbd3ddc59	-0.046352718
28	0x3d8159ac	0.06315932
29	0x3ae52f23	0.0017485361
30	0x3db28bbb	0.08718058
31	0xbcbbcb61	-0.022924127
32	0x3d99e2fe	0.075139984
33	0x3cf2f3de	0.0296573
34	0xbd27a478	-0.040928334
35	0x3d9956f0	0.07487285
36	0xbc8e90a6	-0.017402958
37	0x3d214d67	0.039380457
38	0x3ccb2925	0.024799893
39	0x3cf74804	0.030185707
40	0x3d888733	0.06666412
41	0xbe0235fe	-0.12715909
42	0xbd15a644	-0.036535516
43	0xbd7aa543	-0.061192762
44	0xbda9b167	-0.0828579
45	0xbcd156ab	-0.025554022
46	0xbd9c8093	-0.07641711
47	0xbc499c29	-0.012305298
48	0x3db19b3e	0.08672188
49	0xbbb14477	-0.005409773
50	0x3d23bee7	0.03997698
51	0xbc81f195	-0.015862266
52	0xbc8fe84f	-0.017566828
53	0x3d878531	0.06617201
54	0x3da45fa4	0.080260545
55	0xbd64cd16	-0.055859648
56	0xbdba14d9	-0.090860076
57	0x3d1de667	0.038549807
58	0xbd5c2419	-0.053745363
59	0x3d6b881d	0.057502855
60	0x3c965cf2	0.018354867
61	0xbd9c6c0f	-0.07637798
62	0x3c964e90	0.018348008
63	0xbc363cde	-0.01112291
64	0xbdfb52b1	-0.122716315
65	0x3c0d773f	0.0086343875
66	0x3d68ed65	0.056867022
67	0xbd9a62b6	-0.07538359
68	0xbd669834	-0.056297496
69	0x3ca4eaa7	0.020131422
70	0xbda89e33	-0.08233299
71	0xbc694b4b	-0.014239143
72	0xbd50f214	-0.051012114
73	0x3d7b3396	0.061328493
74	0xbda06560	-0.07831836
75	0xbc0825fb	-0.0083098365
76	0x3d82cb2e	0.0638641
77	0x3db07ed8	0.086179435
78	0xbe0f7839	-0.14010705
79	0xbdfeaf46	-0.124357745
80	0xbbd97055	-0.0066357055
81	0xbd093fe3	-0.033508193
82	0xbca2a14c	-0.019852303
83	0x3d223d48	0.039609224
84	0x3e003197	0.12518917
85	0xbb95c899	-0.0045710322
86	0x3db111f2	0.08646001
87	0x3b086e3b	0.0020817656
88	0x3a8951a4	0.0010476601
89	0xbe0167cd	-0.12637253
90	0x3cbc3d8b	0.022978565
91	0xbd6258fd	-0.055260647
92	0x3cfeca7b	0.03110241
93	0xbda6512c	-0.08120951
94	0xbcf776c2	-0.030207995
95	0xbd34f19d	-0.044175733
96	0x3d9e715b	0.077364646
97	0x3d5bb4aa	0.05363909
98	0xbdb59ba3	-0.08867576
99	0x3d21b149	0.039475713
100	0x3d607cad	0.0548064
101	0xbd4ba93d	-0.049721945
102	0xbe07496d	-0.13211603
103	0xbc1e73cf	-0.009671166
104	0x3db865ac	0.09003767
105	0xbde7e2e0	-0.1132257
106	0xbd915126	-0.07095556
107	0xbda1e0d1	-0.079042085
108	0x3d9c6d33	0.076380156
109	0xbb07be39	-0.0020712747
110	0x3e1d52e4	0.15363652
111	0xbd455239	-0.048174117
112	0xbd0dd940	-0.034631014
113	0x3d83102f	0.06399571
114	0x3aecc049	0.0018062677
115	0x3d9ec0dd	0.077516295
116	0xbdc315c4	-0.09525636
117	0xbd3bffbf	-0.045898195
118	0xbd391210	-0.04518324
119	0xbd456a8f	-0.048197325
120	0x3cf6031a	0.030030776
121	0x3d94300d	0.072357275
122	0xbce650ea	-0.028114755
123	0xbc65b2f7	-0.014019719
124	0x3d742acd	0.05961113
125	0xbd86742a	-0.06565125
126	0x3e135d4b	0.14391057
127	0xbdbc1a67	-0.09184723
