set2graph_model.pth (torch, 207328 bytes, 7 tensors)

set_to_set.0.weight f4 [128, 10]
00000000: a5ce 9abe 563c 8a3e 1155 853f f9d6 b53e
00000010: 16c7 35bf 881a d83e 7f74 e3be b8a3 5f3f
00000020: 827b 8e3e 5b97 67be d055 99be 8339 413f
00000030: 6fd4 b5be ce0b a2be 17d0 27bf 0bae 973d
00000040: bd6c 45bc 3668 9f3e 0680 b43e 0a1b e93d
00000050: f295 7cbf 0cb8 823f 881e e2bc 0dd3 183e
00000060: b443 273d ac2e 15be 2c84 c9bc e07c 383d
00000070: abe1 8c3c 7f8e 8f3e fe68 fcbd dc0c 7d3e
00000080: f829 ae3e 9c1c 9d3f 74e7 51bf 1935 d93e
00000090: 4882 87be 42c0 213f 1682 b43e 2ef5 52bd
000000a0: 69f4 483d e4d7 2f3e 0493 253f 9444 08be
000000b0: 0859 c0bc e47f a5bc 010f e1ba 9dd6 2c3e
000000c0: 1f8d 25bf d4b1 50be da4b 79bf 3b4d 5dbf
000000d0: c746 833d 997e f43e f608 913d 268f 4c3e
000000e0: 6da6 893b e116 e63d 01bf b7bd 9e43 1d3b
000000f0: 6924 2bbf 773f f73e 518b 183d 510a 503e
00000100: fa86 9e3d 133e e9be 56ab 603c 9de8 8fbe
00000110: 41ea 27bd 9464 87be b598 c73e beb0 1b3f
00000120: 6751 d9bc 6535 85be 7488 b23d f4ec b53e
00000130: 2cb7 f0bc 362e 893e d486 03bd 0796 cabd
00000140: c4fc 86be 5d90 433f 9c82 933d 99e8 003f
00000150: 896f 38bd 86fe a6bd f07f 4bbd ab3f 1c3c
00000160: 56b5 1a3c d45b 1f3e f815 06bf 23b8 aa3f
00000170: 1c55 85b9 cb6e 433d 1168 0f3d 06f0 493c
00000180: 369d 32ba bae8 133e bf49 0dbd db7f 57ba
00000190: d6dc fabe 7519 273e 0d88 a6be e40a 0f3f
000001a0: e548 893e 105a 583d 0e48 a3be 3890 1f3f
000001b0: 707f 1fbf 7978 163e fd3d 783f 18ab 803f
000001c0: 32d9 fabd 1fd0 18bf 7011 443d 98bb babc
000001d0: 70ce 4dbc 50e6 5a3e 5991 453e 8948 e93d
000001e0: 1d83 9c3e 821e f9be 7c10 e5bd dc31 883d
000001f0: ad44 8fbe e234 22be a0a8 ce3c 7f3d dbbe
00000200: ce69 ce3d 857f 6dbc a043 913f e297 083f
00000210: 74a1 2abd 5891 003e 8a0f 49bd f558 1e3e
00000220: eeae fa3c df60 65be d82d c93d 3890 17be
00000230: 7088 6fbf b634 b0be c32b 913d f18a bd3d
00000240: fe04 aabc 34d8 803d 0c10 543c 6890 59be
00000250: 24ea c43c 93f3 30bd 1968 26bd d088 c73e
00000260: b770 c0be 271f c3be bd22 86bd 8e23 b33e
00000270: e4e3 003c c01f 62be 96ac 41bd 0f1b 43be
00000280: 6614 c13e 6ffc b2bf 19c2 e13d 723e d3be
00000290: 72dc 733d fefb 14bd 0700 cebb b7d3 a7bd
000002a0: 02d5 dcbd 449e df3d b430 cebe a293 8b3c
000002b0: 475b cdbd 9fc6 15be b7f7 27bf c069 3dbe
000002c0: 348b 92bc 6775 923e 4b3f c3bc 5894 6e3c
000002d0: 20bd 43bf fe27 c2be c38c 8d3e e4be 2a3c
000002e0: 28e1 043e 4149 2bbe 6a11 083c fde0 063e
000002f0: e6e4 4cbe 6b12 24be 5a9a d0bb 2e0b 11bc
00000300: 7097 26be f4fb 06bd 8ea5 5ebb 0429 6c3e
00000310: a8a6 4fbe fb92 76be a441 e33a 3798 b13c
00000320: eb8e b6be 487c 113f bac4 fd3d 70ba 993e
00000330: 335f 3e3d ee9e a93d 021e 243c 7666 9c3e
00000340: 5222 36be 85ed b3bd 197b 8e3f 79c6 09bf
00000350: 275f 7cbd fb91 a6be c869 453d 528e 3dbe
00000360: ea50 9fbb 2a7c 06bd dee2 933d 7ada 8f3c
00000370: 8a55 093e 544b 733f 76b0 51be 7ea7 cd3c
00000380: a706 4b3d 3ab3 40be 732a 363d 8121 c03e
00000390: dba2 fdbd 7ff4 99be 90e9 85bf 8d75 6abf
000003a0: 574f 1cbb 6cc3 33be ef72 b93b 4ce4 80bb
000003b0: 0df5 953a f5d2 363e fbd7 93bc 1516 fc3c
000003c0: 2ed4 1cbf 3474 cc3d 8892 6c3d 2ac8 4d3e
000003d0: 6c1b 9bbf d880 913e 239f 15bb 33c7 29be
000003e0: 8420 053e 340a 4ebd 3f1a 9c3f 6af5 233f
000003f0: b287 6c3e cb56 893e d72c 953d eb1a a73e
-0.30235782 0.26999158 1.0416585 0.35515574 -0.71006906 0.42207742 -0.44424817 0.8735919
0.27828604 -0.22616331 -0.29948282 0.7547838 -0.35513636 -0.3164963 -0.65551895 0.07406243
-0.012049851 0.31134194 0.35253924 0.113821104 -0.986663 1.0212417 -0.027602449 0.1492426
0.04083605 -0.14568585 -0.024599157 0.045040965 0.01719745 0.28038403 -0.12324713 0.24711937
0.34016395 1.2274356 -0.81993794 0.42423323 -0.26466584 0.6318399 0.35255498 -0.051503353
0.049061213 0.171722 0.64677453 -0.1330741 -0.023479953 -0.020202585 -0.0017170609 0.16878743
-0.6466846 -0.20380336 -0.97381365 -0.8644597 0.06409984 0.47752836 0.07081787 0.19976482
0.0042007477 0.112348326 -0.08971978 0.0023996602 -0.6685243 0.48290607 0.037242237 0.20316435
0.077405885 -0.4555517 0.013712725 -0.28107157 -0.040994886 -0.26443923 0.38983694 0.6081656
-0.026528073 -0.260173 0.087174326 0.35532343 -0.029384218 0.2679307 -0.032111004 -0.09891897
-0.2636472 0.76392156 0.07202646 0.50354916 -0.045028243 -0.08154015 -0.049682558 0.009536664
0.009442648 0.15562373 -0.5237727 1.3337444 -0.00025431148 0.047713082 0.035011355 0.012325292
-0.00068135874 0.14444247 -0.034494158 -0.0008220651 -0.4899661 0.16318305 -0.32525674 0.5587599
0.26813427 0.052820265 -0.3189091 0.62329435 -0.6230383 0.14694394 0.96969587 1.0052214
-0.12248458 -0.5969257 0.047868192 -0.02279453 -0.012561426 0.2137692 0.19293727 0.11390788
0.30568781 -0.48656088 -0.11184785 0.06650135 -0.27982083 -0.15840486 0.025226891 -0.42820355
0.100787744 -0.014495735 1.1348763 0.53356755 -0.04165788 0.12555444 -0.049087085 0.15463622
0.030600991 -0.22400235 0.09823197 -0.14801109 -0.9356756 -0.34415215 0.07088425 0.092550166
-0.020754334 0.062912375 0.012943279 -0.21246493 0.024037428 -0.04320104 -0.04062662 0.38971567
-0.37585995 -0.38109705 -0.065495946 0.34988064 0.007866833 -0.22082424 -0.04728373 -0.19053291
0.37710875 -1.3983287 0.11023349 -0.4125858 0.059536405 -0.03637313 -0.0062866244 -0.08194678
-0.107828155 0.10918859 -0.40271533 0.01703817 -0.100271754 -0.14626549 -0.6561236 -0.18497372
-0.017888643 0.28605196 -0.023833891 0.014561735 -0.76460457 -0.37921137 0.27646455 0.010421488
0.12976515 -0.16727163 0.008304933 0.13171764 -0.20009193 -0.16022651 -0.0063660564 -0.008852763
-0.16268706 -0.032955125 -0.003397319 0.23062521 -0.20278418 -0.24079506 0.0017338288 0.021679027
-0.35655913 0.56830263 0.12391038 0.30025053 0.046477508 0.082822666 0.01001692 0.30546921
-0.1778653 -0.08785538 1.1131316 -0.5381847 -0.06161418 -0.3253325 0.048196584 -0.18511322
-0.0048619406 -0.032833256 0.07221006 0.017560232 0.13411537 0.95036817 -0.20477471 0.02510428
0.04956689 -0.1881837 0.044474076 0.3752556 -0.12384578 -0.30069348 -1.0461903 -0.9158562
-0.0023851001 -0.17555016 0.005659453 -0.003933465 0.0011440829 0.17853911 -0.018047323 0.030772248
-0.6126126 0.099831015 0.05775693 0.20095888 -1.2117743 0.28418612 -0.0022830449 -0.16579895
0.13000685 -0.0503027 1.219551 0.6404635 0.23098639 0.2682403 0.07283943 0.32637724

set_to_set.0.bias f4 [128]
00000000: f070 92be dd1c c0be c147 5d3e 727a 4fbe
00000010: c35d fa3e 2c4b d9bc 595b 9fbe 4e3a 1fbe
00000020: 734c 923d 8139 57be ba6f 293e c6bd 153e
00000030: f8c2 cdbe 7792 1f3f c4c9 ad3e b306 68be
00000040: ee84 87be 60cb ffbd f520 abbe 34d8 97be
00000050: 2e56 07bf 4ca8 ba3e 3543 37bf 8389 d63e
00000060: 363b 183e 96f2 ad3e 99cc 3cbd 551c 303f
00000070: 0080 df3e daf7 a2bd 9adc c7be c69b b53e
00000080: 6d3d 043f 2110 a33d 484b 043f dc84 1c3f
00000090: ba6b 163e e231 fbbe ba81 e5be c8c3 77be
000000a0: fe92 10be b245 1cbe 9f74 58be 3299 12bf
000000b0: 3eb8 3b3f 2850 dabe 48c9 83be ee29 1fbf
000000c0: 703b 6abe 7c95 a6be a99c 873f edf9 33bf
000000d0: 0270 ba3e 84cf 5f3f cef0 bfbe c1c7 d5be
000000e0: 6fc7 11be eb01 d1be 6c8b ab3e bdae f7be
000000f0: 8d49 9bbd 84db f2bd 80d8 dfbd f6eb c33e
00000100: 5785 dbbe 1abb f63c b1e3 6ebe de11 c8be
00000110: 978f abbe bab8 823e b998 c03e a67a dcbe
00000120: c39c 99be 9853 273f a869 8abe d28e 003f
00000130: 3b3b b0be adf0 3a3d b880 373f 2778 0e3f
00000140: c36a ffbe 4d6d 9fbe 15a8 60be b751 fc3e
00000150: 47e5 5dbf 1e67 5c3e f53e 003e cf23 13bf
00000160: 2683 3fbf 6767 85be ae94 843d 55b9 053e
00000170: a374 5b3e 75ac 1e3c 9563 91be 6801 043f
00000180: bcfe 81be fd64 5abe 6b60 5abf f8c7 623e
00000190: 8694 73be 39d3 9cbf ee75 9d3e 5f9e 843e
000001a0: d506 063f 015f 483e 39c6 043f 968d 4cbf
000001b0: 846f bd3e 53fe 1fbf 60f0 e9be 2197 25bf
000001c0: 7e9a 5dbe 3979 61be 42ad 06bf e652 a8be
000001d0: 1b5f cdbe d4c7 1bbe a6a8 28bf 8b32 b1be
000001e0: eb12 c8be e3be e9be 8ef8 48bf 6d58 07bf
000001f0: bbe4 e1be e2d1 77be 4ae8 e2be 3ba6 22bf
-0.2860179 -0.3752202 0.21609403 -0.20261553 0.4889966 -0.026525103 -0.3112438 -0.15549585
0.07143488 -0.2101803 0.16546527 0.14623174 -0.40187812 0.6233286 0.33942997 -0.22658806
-0.26468605 -0.124899626 -0.33423582 -0.29657137 -0.52865875 0.36456525 -0.71586925 0.41901788
0.14866337 0.3397414 -0.046093557 0.6879323 0.43652344 -0.0795743 -0.39035493 0.35470408
0.5165623 0.07962061 0.5167737 0.6114023 0.14689532 -0.49061495 -0.44825536 -0.24195778
-0.14118573 -0.15260962 -0.21138237 -0.5726501 0.73328006 -0.4263928 -0.25739503 -0.62173355
-0.22874236 -0.32535923 1.0594684 -0.7030323 0.3641358 0.8742602 -0.37488407 -0.41753963
-0.14236234 -0.40821776 0.33504808 -0.48375502 -0.07582388 -0.118582755 -0.10929966 0.3826596
-0.42875168 0.030118514 -0.23329045 -0.39076132 -0.33507988 0.2553156 0.37616518 -0.43062323
-0.30002412 0.6536193 -0.27033734 0.50217927 -0.3442019 0.045639683 0.71680784 0.5565209
-0.4988614 -0.31138077 -0.21939118 0.49281093 -0.86677974 0.21523711 0.12524016 -0.57476515
-0.7480949 -0.26055452 0.06473671 0.1305898 0.21431212 0.009684672 -0.28396288 0.51564646
-0.2538966 -0.21327586 -0.8530337 0.22146595 -0.23787126 -1.225196 0.30754036 0.25902078
0.52354175 0.19567491 0.51864964 -0.79903543 0.36999142 -0.6249744 -0.45691204 -0.6468373
-0.21640965 -0.22018899 -0.5260812 -0.32875746 -0.40111622 -0.15212947 -0.6588234 -0.34608874
-0.39076933 -0.45653448 -0.78504264 -0.528693 -0.4411982 -0.24201158 -0.44317847 -0.635349

set_to_set.2.weight f4 [128, 128]
00000000: 5f01 a2bd b17a 27be 3058 d4bc 0a87 4c3d
00000010: 89a0 c8bd 4c0d d1bd b760 67bc 0004 cfbd
00000020: d43a 40be d6ff 383e eb3a 30be 7689 443d
00000030: 9f63 083d 1ede 1cbd e01b bcbc 5e93 71bd
00000040: bd9b 7a3c 8d57 c2bd d8b8 d5bd f622 abbd
00000050: ee83 1f3d 71d6 04bd c328 1bbe 212f fcbd
00000060: 6941 53bd 0ccb f33b a576 c03c c3bf fcbd
00000070: a8c6 16be 49c2 bc3d 48e3 19be f557 c7bb
00000080: c9f1 863c e617 993e 23fd 2ebe 5eae abbd
00000090: 1eae c3bd 6f03 773e 0f6b abbb aeb6 313d
000000a0: 3d6e 223e d286 63ba 4dad 20be e49b 3abd
000000b0: fc9a 82bd 29ed aa3e 3d5d fabd 5aad 87bd
000000c0: 0f29 703d 13e9 96bd 9cdc 28be 7f5e 343d
000000d0: 4121 e9bd 7c18 55be 882f 8cbb c197 e6bd
000000e0: 77ce ab3d 43fa 06be 6a05 eb3c 7cc0 f83d
000000f0: e351 083d 38f4 f93c ec25 83bd e048 2f3d
00000100: 8403 b7bd fecd 9e3c 05a2 0f3e 1786 e23c
00000110: d1cc 2f3c aa0c c6bd a86c ec3c aebe 2d3c
00000120: e38c 0abe 2f3f 823e 45b5 913d 7890 893c
00000130: 9b47 e63e 1ffc e3bc 51fe b63c 1744 0fbe
00000140: 608d 0fbd 02d1 00bd 9f1b ccbc 6650 163e
00000150: 2bc9 a93d 36e6 5d3e b99b e53c 7403 b8bd
00000160: 603d 473c f634 25be 5565 70bd 66fb 6a3e
00000170: c247 013d 8cfb 98be dce9 ad3d e4b8 2abd
00000180: 479b 863d 2e82 99bd 5c39 263d 4717 abbd
00000190: 698d 80bd 2afb 29be 1712 8dbd b795 8e3d
000001a0: 8c78 1f3d df39 87bd 5701 813c db1d 80bd
000001b0: 30ce 89bd 0d3d 49be 5349 2a3e 27b9 0bbd
000001c0: 16d2 63be 01d4 6b3d 8446 3c3d cf61 bb3d
000001d0: 3e4b 3f3e 7956 183d 599c 453d f3f6 99be
000001e0: e996 6cbe 8e42 973c 15d1 093e bb17 aabe
000001f0: 262a 62bd 2591 9c3d 134f b33b 2be8 81bd
00000200: 2e7b 163e 442b febd 84dd ac3d 0bd9 4e3e
00000210: 2512 803e 64d0 073d 3ca0 d33c 3bde 2d3e
00000220: 0db0 eebd a4ba 8f3a 939b d43d 8cee d83b
00000230: 0d22 433d 5365 17be 7f9d d13d 9552 8dbd
00000240: 45b1 2f3e 0e48 d0bd 527d 9d3c e1ef 51bd
00000250: 27ad 2ebd bbc0 75bd 754f 67bd 9e0d 153e
00000260: 4a92 ccbd 0d18 41bd ae35 1cbc b36d 84bd
00000270: af10 36be 5d26 b43c 1cc8 f23d 0bbf 17bd
00000280: b3cc 01be a324 45be 19ad 4b3e 2c2e 523d
00000290: cfe7 833d d45a ebbd 1181 93bd 6216 16bd
000002a0: 041c 133d ec9e 1abd bedd 983d 0610 9dbe
000002b0: a401 1cbd 035d fc3d a886 933b d900 4abd
000002c0: 39d8 e23d 9e9e 92bd 052f 4b3d 731a 00bd
000002d0: f30b 9f3d f480 edbc 0978 573e 9181 ae3d
000002e0: 5568 5b3e 912d 413e 4891 0e3d 8de0 313d
000002f0: a9dc ab3c 4e94 2a3d df80 31be 542e dbbd
00000300: 1963 4dbe c3a6 533c 90a9 0e3e 8685 853d
00000310: a908 32be 198d 233e 53de 9ebd 5db0 b8bd
00000320: c591 1f3e e4e3 bc3c 2bc8 303e e020 0c3d
00000330: 3c25 00be 1f4f 843c 3b04 ad3c c7ec 03be
00000340: 7f30 8d3c ac72 023e 89aa e43c 12dc 2cbd
00000350: 0d0a 10bc 0851 46bd 027f ecbd ed68 4dbd
00000360: 7003 44bc 2e5c d73c 3568 c23d cb2a 1a3d
00000370: dcf2 76bd f505 913e 0673 373e 3a2a afbc
00000380: 5b69 66be f051 c8bc cc2d 313d b3c2 45bb
00000390: 3342 c5bd 3d70 20bd de2f d7bd 5cd5 4dbd
000003a0: 02b6 aabc edcc b9bd a17f 493e d00e 9fbd
000003b0: 9b8f a33d 0629 633e c4ec 3d3d 094f 8d3d
000003c0: b50f 71be b7e2 f53c ff33 7d3d f465 d1bd
000003d0: 1676 593c 0e4c 45bd e931 28bc a736 81be
000003e0: 7641 02be 7b54 333d 06c9 cbbd 32f9 653e
000003f0: a349 833e c700 923c eae2 5e3e 975d 9cbd
-0.07910418 -0.16355397 -0.025920957 0.04993347 -0.09796245 -0.10207614 -0.01412218 -0.10108185
-0.18772441 0.18066344 -0.17209975 0.047982655 0.03329813 -0.038297765 -0.02296251 -0.05897843
0.01529592 -0.09489355 -0.10435647 -0.08356278 0.038944177 -0.03243107 -0.15152268 -0.123136766
-0.05157605 0.0074399766 0.023494074 -0.12341263 -0.14724219 0.092167445 -0.15028107 -0.0060834833
0.016472714 0.29901046 -0.17088751 -0.08382867 -0.095546946 0.24122404 -0.0052312682 0.043387108
0.15862365 -0.00086794526 -0.15691109 -0.045558825 -0.06377217 0.33384064 -0.12224815 -0.06624861
0.058632907 -0.07368674 -0.16490406 0.04403543 -0.11383296 -0.20810121 -0.004278127 -0.112594135
0.083889894 -0.13181405 0.028689105 0.121460885 0.03328122 0.03051196 -0.064037174 0.04279411
-0.089362174 0.019385334 0.1402665 0.02765183 0.010729984 -0.09670384 0.028860405 0.010604544
-0.13530307 0.2543883 0.071146525 0.01679252 0.44976506 -0.027830182 0.022338064 -0.13990818
-0.035046935 -0.031449325 -0.024915515 0.14679107 0.08290323 0.2166985 0.028028356 -0.08985034
0.012160629 -0.16133484 -0.058690388 0.22947463 0.031562574 -0.29879415 0.08491871 -0.04168023
0.065725856 -0.07495533 0.040582046 -0.08354049 -0.06276972 -0.16599718 -0.06888216 0.069621496
0.03893332 -0.06602835 0.01574771 -0.062556945 -0.0672878 -0.19652195 0.16629533 -0.034112122
-0.2224811 0.05757523 0.045965686 0.09149515 0.18681046 0.03719184 0.048244808 -0.3007122
-0.23104443 0.018464353 0.13458665 -0.3322123 -0.055215977 0.076448716 0.005472073 -0.06343111
0.14695427 -0.12410596 0.08440688 0.20199983 0.25013843 0.03315772 0.025833242 0.16979305
-0.11654673 0.0010965657 0.10381236 0.006620234 0.047639895 -0.14784746 0.10235118 -0.06900517
0.17157467 -0.10169993 0.019224796 -0.051254157 -0.0426456 -0.059998255 -0.05647226 0.14555976
-0.0998884 -0.047142077 -0.009534283 -0.06466236 -0.17779802 0.02199095 0.11854574 -0.037047427
-0.12675743 -0.19252257 0.1989025 0.051313564 0.06440698 -0.114919335 -0.07202352 -0.03664244
0.03591539 -0.037749216 0.07464169 -0.30676287 -0.038087502 0.12322428 0.0045021363 -0.049317215
0.110763974 -0.0715916 0.04960539 -0.031275224 0.07765951 -0.028992154 0.21041884 0.085208066
0.21426518 0.18865038 0.03480652 0.04342704 0.020979242 0.04164534 -0.17334317 -0.10702196
-0.20057334 0.012918177 0.1393187 0.06519608 -0.17386116 0.15971793 -0.07757249 -0.090180136
0.1558295 0.023057885 0.17263858 0.03421104 -0.12514204 0.01615101 0.021120181 -0.12883292
0.017235039 0.12739056 0.027913349 -0.042202063 -0.008791459 -0.04841712 -0.11547662 -0.050148893
-0.01196371 0.026289072 0.09492532 0.037638467 -0.060290202 0.28324857 0.17914972 -0.02138244
-0.22501127 -0.024453133 0.043256566 -0.0030175864 -0.09631767 -0.03916954 -0.10507177 -0.050252303
-0.020838741 -0.090722896 0.19677593 -0.07766497 0.07986375 0.22183618 0.046368375 0.068998404
-0.23541148 0.030015333 0.061817165 -0.10224524 0.013272783 -0.048168235 -0.010265806 -0.2523701
-0.12720284 0.04378174 -0.099504516 0.22458342 0.25642118 0.017822636 0.21766248 -0.07635038

set_to_set.2.bias f4 [128]
00000000: b4d2 05be 1973 3abe a255 e8be 5dbd f2bd
00000010: d690 19be c24f cabd 0aba 5e3e 034b bebe
00000020: ac63 763e 150a 6a3d 49eb 7a3e e0cc 0e3e
00000030: fafa 2bbe 7020 de3d a703 163f 6c10 bcbd
00000040: 03ad f43c 8847 093f b5c4 eebc 8a79 a0be
00000050: cea5 853d b35a 8bbe efa4 e2bc 24bd f0bd
00000060: 951b 503e c2b4 1f3e f995 e8be bbb5 763e
00000070: 7a54 203e d247 ddbc d298 b2bc 7f96 8fbe
00000080: df29 e43e 18f7 6e3e d1d6 bb3b 4225 83be
00000090: a19d 733e ef87 44be 30e5 f4be 067c 263e
000000a0: 889d 6e3e 5793 16be 657f bfbe 0d92 9e3d
000000b0: c744 7bbe 0c43 65be 27d2 4abe 1198 9c3e
000000c0: cf30 fabd 4073 57be 4d58 9abc f496 ce3e
000000d0: 9ed1 df3d 1d31 66be edd5 54be f90e 30be
000000e0: 210d ed3d c83d 1cbf e6f0 773c cc5c 013e
000000f0: a522 35be b27e 03be d2eb 443e 2ea4 23be
00000100: 04d0 b4be 1829 89be c71f 7fbe 7fd6 97bd
00000110: 0326 a53e d488 9fbe ce1c e93e d0bf c9bd
00000120: 3c55 4b3e 2b8d 9fbd 6e0f 353e bd96 663d
00000130: b361 99bd 2339 603e 2ec6 9c3e 5f2e f0be
00000140: 1df6 583e 40e1 243e 021b e2bc 451a 873d
00000150: 1334 06bc 7b66 04be f679 c43e 2f23 173e
00000160: 1156 46bd c7d8 dabd 093b 05bb 0509 63be
00000170: 631b 573a 1875 a9be 5f28 143d da35 c93e
00000180: 4eaa cbbe bf1c 10bd 1f29 aa3e 6e3d 093c
00000190: a889 383f bc18 5bbe 14f9 2f3e a853 523e
000001a0: 798a 6e3e c47e 813d 43f2 313d 85a2 33be
000001b0: a04a ae3e 4047 bb3e f519 5cbf 8d7f cfbe
000001c0: b0dd 75bd 6c77 c5be 5ce7 dcbd 4c1d ca3e
000001d0: 376e d83d 7a23 153e 639f 4cbd 22fb 07be
000001e0: 414f 3f3d 1f3b 76be c5a5 513e d58e b5bd
000001f0: c127 ad3e fa81 833e d796 11be dfc3 64be
-0.13068658 -0.18207969 -0.45377833 -0.118525244 -0.14996657 -0.09878494 0.21750656 -0.37166604
0.2406146 0.05713852 0.24503817 0.13945341 -0.16794959 0.10846031 0.58599323 -0.0918282
0.029867655 0.53624773 -0.029146532 -0.31342727 0.06525765 -0.27217636 -0.027666537 -0.11754826
0.20323022 0.15596297 -0.4542692 0.24092762 0.15657225 -0.027011786 -0.021801386 -0.28044507
0.44563195 0.23336446 0.005732395 -0.25614363 0.237906 -0.1919248 -0.47831106 0.16258249
0.23302281 -0.14704643 -0.37401882 0.07742701 -0.24537955 -0.22388858 -0.1980673 0.30584767
-0.12216341 -0.21040058 -0.018840933 0.40349543 0.10928653 -0.22479673 -0.20784731 -0.17193212
0.1157477 -0.6103177 0.015133118 0.12633055 -0.17688997 -0.12841299 0.19230583 -0.15980598
-0.35314953 -0.26789165 -0.24914466 -0.07413959 0.32255563 -0.3115908 0.4552979 -0.098510385
0.19856733 -0.077905975 0.17681667 0.0562961 -0.07489338 0.21896796 0.3061995 -0.46910378
0.21187635 0.16101551 -0.027600769 0.065968074 -0.008191126 -0.12929718 0.383743 0.14759515
-0.048421923 -0.10685878 -0.0020329377 -0.2217141 0.000820568 -0.33097148 0.036171313 0.39298898
-0.3977837 -0.035183664 0.33234498 0.008376462 0.72085047 -0.21396154 0.1718486 0.20539725
0.2329501 0.06323007 0.04344393 -0.17542465 0.3404131 0.36577797 -0.8597711 -0.40527
-0.06002587 -0.38567674 -0.10786316 0.39475477 0.10567897 0.14564314 -0.04995669 -0.13279393
0.04670644 -0.2404599 0.20473392 -0.08865134 0.33819392 0.25685102 -0.14217697 -0.22340344

edge_classifier.0.weight f4 [128, 256]
00000000: 2eca 05be 9b04 f53c b881 12be 457b 403e
00000010: 9bb9 103e e2c7 25bd 2af9 0d3e aa01 203e
00000020: e01a 39bd 4dff e63c 9117 073d bc68 a3bd
00000030: c2c1 a03d e83b c53d 05a3 96bd f519 a23c
00000040: 3944 cf3c dac4 aebb bf8b 5a3d 36ef 4d3c
00000050: 2490 a63c 9aaf e3bd bf46 fdb9 e661 77bc
00000060: 3127 76bd 770d cb3d 2ef1 db3d 7d53 2ebd
00000070: 5425 bebd 6f66 5e3d 9d8f dc3c 1026 0abd
00000080: 5664 e63b 44a1 31bd d512 923c 7115 313d
00000090: 5eec 18bd 59be 8fbd 8b6f 9e3d f015 de3c
000000a0: a0b4 523c 2b71 90bb 6389 873d 35d6 36bd
000000b0: d6a0 bbbd 095a e1bd 9d3d 0abe 1c45 55bc
000000c0: 89ed ea3d a594 4bbe 756f 9c3d b84d 53bd
000000d0: 0246 a23d cc5e 863d d715 26bc d563 973d
000000e0: c974 a33d d0cd b73d 9cc2 bcbd 45e9 8cbc
000000f0: 66ec 11bd 80db 023c 4e4e fe3c 53ce 133d
00000100: d222 a9bd e3fa 88bd c933 d5bd c45a 94bc
00000110: 27ce 91bd aa82 963d d201 483d 6123 e2bd
00000120: aa24 863d 4097 b83c 307c 0fbd 4553 1abe
00000130: c27e 8e3d a260 f2bd f4ff eabc 998f a8bd
00000140: 6597 2fbe 8c26 cd3d 405f c73c a8ba 0ebe
00000150: 815e 5ebc 733c c63c c9d4 19bd cec3 1b3d
00000160: 3490 f6bd 4433 29be 60bb f2bd 581f d3bd
00000170: 6952 003d efa5 c8bc 4068 87bc 412b 3b3e
00000180: e8f4 9fbd 5dcd 22bd 250a bd3d fc1b 4cbe
00000190: a632 aabd 6bb7 c83d 617c 6c3d 9087 acbd
000001a0: 936a c23d 8bd2 3f3e 35ed be3d a464 7e3c
000001b0: c610 fa3a 8b5c 223a 8f1f 123e 1055 d23d
000001c0: a8c1 81bd 0e4a 9abc 96a9 0dbe a7ad 733d
000001d0: 645f a0bd 7713 ddbd 4d4e 5a3d 2889 c0bc
000001e0: 1121 2abe 6b92 e1bd d949 ed3d d93d 5b3c
000001f0: ae29 863d ae49 02be e2a8 05bd 815d 62bc
00000200: 5a29 dbbd 6140 a43d a4ab 1dbe 551d a43d
00000210: 573f 9f3d a665 aabd d8dc 0fbd c247 4d3e
00000220: 27ea 233d 6f14 6c3d 6da1 94bd 8c98 103d
00000230: 1b9d 84bd 5c9b 5c3c 5486 8cbd bdc2 9dbc
00000240: 4539 8c3d c964 d2bd 97af d3bc ec8d ff3b
00000250: a862 a2bd c58c e7bd e4fb 1fbe 3876 bb3d
00000260: d0f1 0bbd 8a5d 38bd 6588 443d 4277 72bb
00000270: 9e84 5dbd 3f6c 0dbb 102b 4e3d 8bfb bdbb
00000280: f469 e1bd 1ef2 4c3d d3a6 b5bd 7e5c 7cba
00000290: 57b4 d5bd b881 c8bc db6f c33d 504c cfbd
000002a0: 702c 4d3c b85d 8ebd fa18 603d 7d9f 40bd
000002b0: 68b3 003d 7fac 3fbd 1e9c d7bd 30cb 663d
000002c0: 4de1 ad3d f64b 8abd e5e5 ba3b 7a38 243d
000002d0: 0d4a 083e 51fa 9a3d d5b2 ddbd de8d 56bd
000002e0: a0b5 5c3c 61ae a33b 4033 c33d 5f95 773b
000002f0: 34be d2bc 0a41 7d3d bceb 123e 3ba9 83bc
00000300: 7d21 ebbd d638 16bd 57da a7bc 2d2a 48bd
00000310: 0805 ddbd 27ca 803d 789b c73c 69bb 11be
00000320: bb7b ea3c 52ce 543d f60c dabd 2110 b0bd
00000330: e9e4 bcbd 981f a9bd 944d cb3d 6ae9 163d
00000340: 6c65 e1bd edd8 d03d f07e 313d c4fc 42bd
00000350: f9f5 1fbd d694 7bbb f754 95bd 32ce cb3d
00000360: 1190 bb3c 8da7 aebc 6b33 19bd 2005 a83b
00000370: 72d1 f93d 200b 47bd 3b49 98bd 342b 13bb
00000380: a986 0dbe 76c9 2c3c c5be d53c 99c7 cdbc
00000390: 665c bebb 4823 513d cf34 c0bc 114f 9abd
000003a0: a6c8 213c 6fa0 db3d d929 313d 051d 40bd
000003b0: 5452 6b3c 6f7e 5e3d f445 473d cec9 b13c
000003c0: fbc0 99bc 55e5 50bd 1a2a 75bd 6cf0 513d
000003d0: 3bff f6bb acb2 c7bd e1ed 463d 4570 b6bc
000003e0: a771 303d f450 e13b d94f 9b3d b428 b9bd
000003f0: 5c28 983d 2903 073b 8d0f c8bc cba3 703d
-0.13065407 0.029909423 -0.14307296 0.18797024 0.14133303 -0.040473826 0.1386458 0.15625635
-0.045191646 0.028197909 0.03298146 -0.07978961 0.07849456 0.09630567 -0.07355312 0.019787768
0.025301086 -0.005333525 0.05335593 0.012569239 0.020332403 -0.11117478 -0.0004830863 -0.015099024
-0.06009597 0.099146776 0.10739361 -0.04256009 -0.092844635 0.054296907 0.026923949 -0.033727705
0.007031004 -0.043366686 0.017831245 0.04323334 -0.037334792 -0.07018728 0.07736119 0.02711007
0.012860447 -0.004408022 0.06618001 -0.044637877 -0.091615364 -0.11003501 -0.13500066 -0.013016965
0.114710875 -0.19880922 0.07638446 -0.05158779 0.07923509 0.0656105 -0.010137043 0.07392088
0.079812594 0.089748025 -0.09216806 -0.017201075 -0.035625838 0.007986903 0.031043198 0.036085438
-0.082585946 -0.06688478 -0.10410268 -0.018109687 -0.071193986 0.07349141 0.04882986 -0.11041904
0.06549962 0.02253306 -0.035030544 -0.15070827 0.06957771 -0.118348375 -0.028686501 -0.08230514
-0.17147596 0.10017118 0.02433741 -0.13938391 -0.013572336 0.024198746 -0.037556443 0.03802853
-0.12039223 -0.16523463 -0.11852145 -0.10308713 0.031328592 -0.024493186 -0.016529202 0.18278219
-0.07810384 -0.03974663 0.092304505 -0.1993255 -0.08310442 0.09800609 0.057735804 -0.08424294
0.09492984 0.1873266 0.093225874 0.015526924 0.0019078485 0.00061935995 0.14269851 0.10270131
-0.06335765 -0.01883414 -0.13834223 0.05949178 -0.07830694 -0.10794728 0.05329733 -0.023502901
-0.16614176 -0.11014255 0.11586351 0.013381445 0.065509185 -0.12723419 -0.032631762 -0.013816238
-0.107012466 0.08020092 -0.15397507 0.08013407 0.07775753 -0.08320169 -0.035122722 0.20046905
0.040018227 0.057636674 -0.07257352 0.03530173 -0.06475278 0.013464775 -0.068615586 -0.019257898
0.06846861 -0.102731295 -0.025840564 0.007798901 -0.079289734 -0.113061465 -0.15623432 0.09153408
-0.034166157 -0.04501108 0.04798164 -0.0036997353 -0.05408155 -0.0021579412 0.050334036 -0.0057978085
-0.11006537 0.05003559 -0.0886971 -0.00096268195 -0.10434788 -0.024475917 0.09542819 -0.10121977
0.012522802 -0.06951469 0.05471132 -0.0470271 0.031421095 -0.046795364 -0.10527824 0.05634612
0.08490238 -0.0675277 0.005703675 0.040092923 0.13309498 0.07567275 -0.10825125 -0.05238139
0.013471037 0.004995153 0.095312595 0.003777824 -0.025725462 0.061829604 0.14347738 -0.016071906
-0.11480997 -0.036675297 -0.020489855 -0.048868347 -0.10791975 0.062885575 0.024366125 -0.14231648
0.028623452 0.051954575 -0.10647003 -0.08596826 -0.09223349 -0.08257979 0.09926906 0.036843695
-0.11005673 0.10197625 0.043333948 -0.047604337 -0.039052937 -0.0038388274 -0.072915964 0.09951438
0.022895845 -0.021320129 -0.03740255 0.005127564 0.12198152 -0.048594594 -0.074358426 -0.002245617
-0.138209 0.010546079 0.026091943 -0.02511959 -0.0058093546 0.051059037 -0.023462681 -0.07534612
0.0098744985 0.1072396 0.0432528 -0.046902675 0.01436289 0.054319795 0.048650697 0.021702673
-0.018768778 -0.050999958 -0.059854604 0.051254675 -0.00753775 -0.09750876 0.048566703 -0.022270331
0.043077137 0.0068761054 0.07583589 -0.09040967 0.07429573 0.0020601249 -0.024421478 0.058749955

edge_classifier.0.bias f4 [128]
00000000: 8038 cd3e 87a1 b63e 0551 cf3e c30e 99be
00000010: 3a29 b5be 599b 63bf 81a0 87be 2ff4 89bb
00000020: 83e6 e43e ee9e d9be 56c7 65bf ea10 9cbe
00000030: f51a b2be 43ad c5bd 8cc2 04bf c3cd f8be
00000040: 6409 023f 9e87 3fbf 313a efbe 8955 e3be
00000050: e609 7fbe 328e abbe 77dc 9ebe 1da9 22bf
00000060: d26c 143f 5d0f d8be ded3 95be 28cb 99ba
00000070: 6540 54be 314b c9be f0f5 23be e81e 263f
00000080: 0614 193f 4fdd 4cbe bb7c b0be cb08 fdbd
00000090: 52f8 fc3e b0e0 8dbe 76f7 d1be b28f 08bf
000000a0: 33f4 113f d005 d7be 68e4 cebe 3fb1 60bf
000000b0: 2a96 52be 02f4 9fbe 7c4f f2bd 34ff 50be
000000c0: 55bf 01bf 47bf 5f3c e278 8cbe 4e36 9dbe
000000d0: dbd0 a3be d12b f6be dad7 eebd 119c 7a3e
000000e0: 3bb3 193f 5944 0d3f 6233 fb3c 5a05 8fbf
000000f0: 447f 273f 64c1 5abe 8413 053d fad3 72be
00000100: 2acb 77be cf65 f4be cb76 6bbf 2adf 30bf
00000110: cfd9 b5be b024 03bf e33c f2be d758 f3be
00000120: e513 7c3e 1aa9 0e3f f6c4 3cbf 3dd9 86bf
00000130: 6735 b83e 49b7 f9be 1c9b 0cbf 0140 b5bd
00000140: dc69 ebbe e716 3abe 82f7 dfbe 61a2 36be
00000150: b055 45be 2b78 21be 6646 13bd f712 afbe
00000160: 7a7a 98bb c002 073f db3f 8abf d32b 7bbe
00000170: 7d8b 29bf 0a4d dcbe 36b1 1f3f deb8 1bbe
00000180: 0362 4dbf 49f7 e43e 7886 5fbf d43b 3cbe
00000190: 0467 a5be dff7 f3be 9fc0 89be bb9e 953e
000001a0: b548 113f b2e3 053f 617c 69be 2841 243f
000001b0: dfca fabe f74b babe 7a77 3d3d 94d4 09bf
000001c0: 3e3c 3dbe ba1a 973e 3ad6 cebd b9ff 3ebe
000001d0: 58bd 98be 89c6 6fbe 3131 943e d1b2 003f
000001e0: 5be1 bfbe f90b 063f 41e4 40be d273 8fbe
000001f0: 2c0c 0d3f 592b a83d 3f53 88be b907 77bf
0.4008217 0.3567011 0.404915 -0.29894075 -0.35383016 -0.88908917 -0.26489642 -0.004210017
0.44707116 -0.42504066 -0.8975729 -0.30481654 -0.34786192 -0.09652188 -0.51859355 -0.48594484
0.5079558 -0.7481631 -0.46724084 -0.44401196 -0.2490612 -0.33506924 -0.31027576 -0.63539296
0.57978547 -0.4219922 -0.29263204 -0.0011733519 -0.2072769 -0.3931518 -0.16011786 0.6489091
0.5979618 -0.20006298 -0.34470162 -0.12355193 0.49408203 -0.27710485 -0.4100911 -0.5334426
0.57013243 -0.41996622 -0.40408635 -0.87770456 -0.20565096 -0.3124085 -0.11831567 -0.20409852
-0.50682575 0.013656444 -0.27435976 -0.30705494 -0.31995282 -0.48080304 -0.11662264 0.24473597
0.6003911 0.55182415 0.03066415 -1.1173508 0.65428567 -0.21362835 0.032489315 -0.23713675
-0.24198595 -0.47733924 -0.9197814 -0.6909052 -0.35517737 -0.51227856 -0.47312078 -0.47528717
0.24616964 0.5572678 -0.7373804 -1.0535046 0.35978243 -0.48772648 -0.5492418 -0.088500984
-0.45979202 -0.18172799 -0.4374352 -0.1783538 -0.19270968 -0.15768497 -0.03595581 -0.34194157
-0.004653272 0.5273857 -1.0800737 -0.24528436 -0.6622847 -0.43027526 0.6237978 -0.1520724
-0.8022768 0.44719914 -0.8731456 -0.18382198 -0.32305157 -0.47650048 -0.2690477 0.29222664
0.5675157 0.5230056 -0.22801353 0.6416192 -0.48982903 -0.36386082 0.04625652 -0.53839993
-0.18480012 0.29512578 -0.10099454 -0.18652238 -0.29831958 -0.23415579 0.2894378 0.5027285
-0.3747662 0.5236202 -0.18837072 -0.2801805 0.550967 0.08211393 -0.26626012 -0.9649616

edge_classifier.2.weight f4 [1, 128]
00000000: 0028 b33c b3d8 ec3c 40ff f13c 89ad eebd
00000010: 7a4c a1bd 1711 e43d ab7d c5bd 367a 943d
00000020: 7bae 323d d5b0 e03d da9b aa3d 902c 79bd
00000030: c281 46bd 3464 883d 77d6 0ebe 916f 14be
00000040: 5935 573d 37ae c13d c35f f7bd 9dc4 0e3e
00000050: ede4 82bd e1a3 e9bd 913a 1b3e 693a 05be
00000060: 1580 843d bf31 dabd f565 bbbd 7e9a d23d
00000070: 871a ffbd 1cc8 9dbd 8273 063e 5832 b53d
00000080: f665 1a3d bfa4 a5bd 9a78 75bd 8b19 dabd
00000090: e413 113d b4ee 8abd 3c66 db3d affd 08be
000000a0: 9d74 853d 1971 f3bd 13e3 90bd 0834 b93d
000000b0: 5c8f 09be 8c39 72bd ddc2 e2bd 4f63 12be
000000c0: cd95 bdbd d48a 18ba dfb1 dcbd 4ea7 0fbe
000000d0: 654e a5bd b658 b7bd de45 813d 81e0 ff3b
000000e0: 5cfd 6d3d 7176 aa3c 647f f43d 9c59 343e
000000f0: fd20 4e3d c42a 65bd 07c2 3a3e 7e95 c5bd
00000100: 4f53 89bd 4f46 aebd 992b 953d f366 873d
00000110: cc51 bd3d c47c a6bd ab4c 06be 98a4 a73d
00000120: 45da 8b3d cdaf dd3c 8a42 bf3d 20b5 153e
00000130: ccd6 cb3c e376 21be d064 f33d 1095 eabd
00000140: 2fbb afbd 2cd2 a6bd c4fe bdbd 689a d5bd
00000150: 8643 acbd 7bb9 a33c 80fb ba3d a9b9 98bd
00000160: 4c5e a53d 2899 013d b135 fc3d 169f 95bd
00000170: 06a1 e03d 6a63 8cbd f05c c63d 0e1b 02be
00000180: 652a 783d 69c5 a53d e471 453e 9a81 c1bd
00000190: 31c3 afbd 7082 723d 94ba 46bc 0393 6b3d
000001a0: 5a09 b03d b3ae 503d 12c5 03be 5d6f a63d
000001b0: 49ef 10be 714a 643e 68bd c2ba f29e e0bd
000001c0: d407 a5bd 9eaa 6b3d 9604 f3bd 96f1 bbbd
000001d0: de64 bc3d 02ab cdbd 9321 8d3d 6755 293d
000001e0: 74b4 c5bd 6405 093d 0e8f 15be 069b ab3d
000001f0: 76e8 633c 20de 193e 198f 8ebd 1378 ed3d
0.02186966 0.028911924 0.029540658 -0.11654193 -0.07875915 0.11136072 -0.0964311 0.072498724
0.04362343 0.10971228 0.083305076 -0.060833514 -0.04846359 0.06659737 -0.13949 -0.14495684
0.05254111 0.09457057 -0.12078812 0.1394219 -0.063913204 -0.114082105 0.1515906 -0.13010563
0.06469742 -0.106540196 -0.09150306 0.10283373 -0.124562316 -0.077041835 0.1313 0.08847493
0.037694894 -0.080880634 -0.059929468 -0.10649403 0.03541936 -0.0678381 0.10712859 -0.13378023
0.06516383 -0.11886806 -0.07074561 0.09043127 -0.13433594 -0.059136912 -0.110723235 -0.14295696
-0.09257088 -0.0005819027 -0.10776114 -0.14028665 -0.08071593 -0.08952467 0.06312154 0.0078087454
0.05810295 0.02080843 0.1193836 0.17612308 0.05032443 -0.055948988 0.18238078 -0.09647654
-0.06705343 -0.08509504 0.07283706 0.06611433 0.09244117 -0.08129266 -0.13115184 0.08185691
0.06828741 0.027061367 0.09338863 0.14619875 0.024882697 -0.15768008 0.11884463 -0.11454213
-0.08580624 -0.08145556 -0.09277108 -0.10429841 -0.084113166 0.019985905 0.09130001 -0.07457287
0.08074626 0.0316402 0.12314928 -0.07305734 0.10968213 -0.06854899 0.09685695 -0.12705633
0.060587306 0.080942936 0.19281727 -0.09448548 -0.08582152 0.059206426 -0.012129445 0.05751325
0.08595534 0.050947856 -0.12868145 0.081267096 -0.1415378 0.22294022 -0.0014857473 -0.109678164
-0.08058134 0.05753576 -0.11866109 -0.09176938 0.091989264 -0.10042383 0.068911694 0.04134121
-0.09653559 0.033452407 -0.14605352 0.08379178 0.0139104035 0.1502614 -0.069608875 0.11595168
