set2graph_model.pth (torch, 207328 bytes, 7 tensors)

set_to_set.0.weight f4 [128, 10]
1.4203779 -1.1041772 -0.1050912 0.41661534 0.22844586 0.105414115 0.0097448 -0.047793318
-0.040566236 -0.0800097 1.9334722 0.30163413 -0.020252313 0.15630428 0.062449962 0.005742509
0.00018483764 -0.23541717 0.0099942675 0.0012795221 0.79795355 -0.2980476 -0.0027735878 0.23248035
-0.6171515 0.08000476 0.0080796955 -0.3379662 0.106649876 -0.013835221 0.829691 -1.0666714
-0.057224654 -0.4495828 0.14092633 0.02782472 -0.03487552 -0.06683236 -0.18393119 0.21212855
0.20969276 0.40525013 0.2690361 -0.07360262 -0.26642135 0.42947876 0.011367799 -0.29408708
-0.20687631 -0.15467566 0.83369565 -0.044427663 0.039987236 0.04168816 -0.10211475 -0.021455185
-0.005568425 -0.06287698 -0.024309821 -0.02948364 -0.67693585 -0.6830152 0.3134136 -0.055087417
-0.33335647 0.07686271 0.06831784 0.17528896 -0.16862781 -0.25242397 0.33459297 0.15797143
0.09506137 -0.80972576 0.1999571 0.16184077 -0.0035562369 -0.60411 0.12947477 -0.032670114
-1.0779827 0.82059205 0.18670516 -0.015505759 0.21753937 -0.07686714 0.020969436 -0.078306586
-0.18064748 -0.30805972 0.3560713 -0.13137588 0.25171995 -0.5538861 -1.1846187 0.47445905
-0.1331583 -1.1923033 0.07472774 0.09482974 0.64374244 -0.7642376 -0.1422824 0.3783614
-0.056811493 0.38828835 0.036878165 -0.26531333 0.14746717 -0.4353163 0.5977507 0.18494408
-0.1218477 -0.12503031 -1.0618509 0.3018613 -0.0060570445 -0.18921313 0.30041754 -0.0048137545
0.090326615 0.047159925 0.28252265 -0.55998456 -0.3716249 -0.51203346 -0.020593608 -0.7287221
-0.06677763 0.23483135 -0.79646087 0.30794036 0.15305503 0.22580484 -1.0659319 0.16435215
-0.01572792 0.13253166 0.021943016 -0.033169426 -0.9345699 1.3737599 -0.27714205 -0.3256273
0.1963284 -0.032147195 -0.0067731426 -0.15857393 0.15379591 0.030670421 0.17733264 0.36583272
0.3365398 0.47723684 -1.4356521 0.11399432 -0.10275836 0.57427907 0.31918663 -0.121169
0.0839579 0.2609054 0.099166736 0.08312378 -0.27717543 -0.2709126 0.0046951557 0.215897
-0.21819682 -0.101209 1.6948828 -0.41713777 0.026661236 -0.26150545 0.07601692 -0.08299777
-0.0009108587 -0.19321415 -0.0027745205 0.010334844 0.17677046 0.15867488 -0.6002153 0.23897883
-0.47556984 -0.79728454 -0.32870975 0.12319345 -0.75065404 -0.21167155 0.82668984 -0.24782059
0.039603066 0.04480552 -1.2706836 -0.0039117266 -0.005302005 0.00895958 -0.040896144 0.012379849
-0.39174923 -0.8180909 0.23030254 0.26599044 0.0010030334 0.23285031 0.011462998 -0.3464559
-0.05808402 -0.050791133 0.5370075 -0.14488071 0.016484708 -0.023425188 0.118586026 0.11101068
0.00034782753 -0.099039696 0.048267066 -0.038082723 0.25234202 0.039834473 -0.22994398 0.086585805
-0.47686395 -0.33421662 -0.37542158 -0.00011099791 -0.15387167 -0.18621768 0.77204245 -0.18639612
-0.059759516 -0.1308406 -1.4683725 0.0013039116 0.00751036 0.20677775 0.010096776 -0.04164574
-0.4753022 -0.46679097 0.027545614 -0.34291506 -0.073288 -0.06887356 0.04643284 -0.10977187
0.23358507 -0.4928216 0.9493366 0.22408278 -0.0031248427 -0.03236253 -0.44916248 0.096454024
00000000: f1ce b53f ae55 8dbf 0e3a d7bd 9b4e d53e
00000010: b6ed 693e 5be3 d73d a7a8 1f3c edc2 43bd
00000020: c828 26bd 20dc a3bd 047c f73f ca6f 9a3e
00000030: 2ee8 a5bc 3b0e 203e 88cb 7f3d a82b bc3b
00000040: fad0 4139 3311 71be ffbe 233c a3b5 a73a
00000050: af46 4c3f b299 98be 15c5 35bb 540f 6e3e
00000060: a4fd 1dbf 89d9 a33d b360 043c e809 adbe
00000070: 406b da3d 1fad 62bc a166 543f b088 88bf
00000080: 6664 6abd b72f e6be fe4e 103e abf0 e33c
00000090: a2d9 0ebd 68df 88bd 7558 3cbe 3a38 593e
000000a0: b3b9 563e f27c cf3e 1abf 893e f8bc 96bd
000000b0: 6168 88be a4e4 db3e 0140 3a3c 9592 96be
000000c0: 62d7 53be 4c63 1ebe 146d 553f c8f9 35bd
000000d0: a8c9 233d 34c1 2a3d 8a21 d1bd c9c2 afbc
000000e0: 5677 b6bb a5c5 80bd 6425 c7bc ad87 f1bc
000000f0: ab4b 2dbf 16da 2ebf bf77 a03e 58a3 61bd
00000100: b3ad aabe 326a 9d3d 39ea 8b3d f37e 333e
00000110: c5ac 2cbe b73d 81be c54f ab3e 43c3 213e
00000120: 89af c23d 304a 4fbf 8ec1 4c3e 96b9 253e
00000130: c10f 69bb f4a6 1abf 0995 043e 19d1 05bd
00000140: 56fb 89bf 5212 523f a32f 3f3e de0b 7ebc
00000150: a4c2 5e3e 856c 9dbd 18c8 ab3c 345f a0bd
00000160: a7fb 38be 01ba 9dbe fa4e b63e 6687 06be
00000170: 70e1 803e 7bcb 0dbf 96a1 97bf 4cec f23e
00000180: a65a 08be 659d 98bf db0a 993d 1836 c23d
00000190: 4ecc 243f 13a5 43bf 7ab2 11be 96b8 c13e
000001a0: 2bb3 68bd bbcd c63e 8f0d 173d 26d7 87be
000001b0: a201 173e c7e1 debe 3106 193f fb61 3d3e
000001c0: 498b f9bd f207 00be bbea 87bf 908d 9a3e
000001d0: 2c7a c6bb 16c1 41be 54d0 993e b3bc 9dbb
000001e0: 29fd b83d c42a 413d cfa6 903e 265b 0fbf
000001f0: 9e45 bebe a014 03bf edb3 a8bc 888d 3abf
00000200: b6c2 88bd a177 703e dce4 4bbf 5caa 9d3e
00000210: 75ba 1c3e 6239 673e 7570 88bf ee4b 283e
00000220: d7d7 80bc 61b6 073e d7c1 b33c aadc 07bd
00000230: f93f 6fbf 5dd7 af3f 90e5 8dbe 9fb8 a6be
00000240: 500a 493e c7ac 03bd 3df1 ddbb 3461 22be
00000250: ad7c 1d3e 8940 fb3c b096 353e 6d4e bb3e
00000260: f24e ac3e 6358 f43e 73c3 b7bf db75 e93d
00000270: fa72 d2bd f403 133f 6e6c a33e 7427 f8bd
00000280: 1ff2 ab3d 6595 853e ee17 cb3d cd3c aa3d
00000290: f0e9 8dbe 0eb5 8abe d2d9 993b 1a14 5d3e
000002a0: fd6e 5fbe aa46 cfbd ebf1 d83f 1593 d5be
000002b0: aa68 da3c 0be4 85be c2ae 9b3d bcfa a9bd
000002c0: b1c6 6eba eed9 45be bbd4 35bb 7a53 293c
000002d0: 5103 353e ab7b 223e b6a7 19bf deb6 743e
000002e0: e47d f3be d71a 4cbf a54c a8be d94c fc3d
000002f0: dd2a 40bf 6dc0 58be f2a1 533f aec4 7dbe
00000300: d336 223d fe85 373d c3a5 a2bf f12d 80bb
00000310: 71bc adbb 34cb 123c b782 27bd dad4 4a3c
00000320: 5b93 c8be 686e 51bf 6ed4 6b3e e62f 883e
00000330: 3778 833a 5070 6e3e 4ccf 3b3c ab62 b1be
00000340: 82e9 6dbd 5d0a 50bd 5379 093f 9c5b 14be
00000350: f00a 873c 2ee6 bfbc 3bdd f23d 9159 e33d
00000360: 9f5c b639 53d5 cabd b0b3 453d a1fc 1bbd
00000370: f932 813e 7929 233d 6f76 6bbe e653 b13d
00000380: 8327 f4be 711e abbe 4237 c0be 8dc7 e8b8
00000390: 8990 1dbe d9af 3ebe 93a4 453f a0de 3ebe
000003a0: 65c6 74bd 14fb 05be a1f3 bbbf 03e8 aa3a
000003b0: 7719 f63b 8cbd 533e f36c 253c b994 2abd
000003c0: cf5a f3be 3aff eebe 57a7 e13c 9092 afbe
000003d0: 0518 96bd 950d 8dbd 5d30 3e3d 13d0 e0bd
000003e0: ed30 6f3e 1d53 fcbe b907 733f f575 653e
000003f0: 29ca 4cbb 928e 04bd a0f8 e5be b089 c53d

set_to_set.0.bias f4 [128]
-0.27029768 -0.4540355 -0.15638775 -0.28465992 -0.44319972 -0.4749066 0.0042108456 0.7318759
-0.40817615 -0.41234407 0.17846113 -0.06746465 0.38280755 -0.067637816 0.06784032 -0.06860462
-0.6043129 0.11029706 -0.55428714 -0.3509139 0.36054134 -1.0854446 -0.26872852 -0.42482707
-0.36099982 -0.27260762 -0.09389208 -0.5705817 -0.6295539 0.088028684 -0.22083813 -0.91262877
-0.47773308 -0.05652897 0.051031772 -0.74160975 -0.24377145 0.09801286 -0.93095005 -0.42599988
-0.030104205 -0.47955215 -0.50073624 0.5926702 -0.48741207 0.64438075 -0.25601232 0.5444161
-0.8276222 -0.3376374 -0.038737144 -0.31257647 -0.06019072 -0.102794245 -1.0367005 0.12054824
0.48537335 -0.26041582 -0.54343736 -0.5678291 -0.62414366 -0.41069153 0.30226982 0.4065907
0.67856324 0.4031474 0.5201204 0.7801187 -0.10600146 0.38700926 -0.15541986 0.57011104
-0.24190658 0.38679153 0.57481813 0.25270876 -0.3652323 0.13148488 -0.61038977 0.037914485
-0.39316726 -0.43338475 0.09026577 -0.018229172 -0.11256583 0.18709718 -0.5643303 -0.29763338
0.63717747 -0.20589937 -0.42316875 -0.93750185 0.26580727 0.8462252 0.24690576 0.5011745
-0.3646995 -0.20993046 0.3609111 -0.5317094 -0.1276864 0.004303881 -0.19678639 -0.69750166
0.17866212 -0.47849408 -0.68890315 -0.19187896 -0.43608063 -0.79747176 -0.37143683 -0.70027536
-0.7090145 -0.6052271 0.47464558 -0.19457166 -0.45589826 -0.23207045 0.4234658 0.2587882
-0.27904817 1.1398925 0.61688524 -1.0268685 -0.29174894 -0.4092005 -0.14104147 0.57268196
00000000: 7564 8abe 5777 e8be 1c24 20be f2be 91be
00000010: 13eb e2be f526 f3be 22fb 893b 385c 3b3f
00000020: 77fc d0be c31e d3be 84be 363e e82a 8abd
00000030: 5aff c33e b285 8abd deef 8a3d 9480 8cbd
00000040: 40b4 1abf 6de3 e13d c3e5 0dbf fdaa b3be
00000050: e098 b83e d9ef 8abf c996 89be ef82 d9be
00000060: f8d4 b8be 3a93 8bbe 7e4a c0bd a411 12bf
00000070: 722a 21bf 6248 b43d 6423 62be 0aa2 69bf
00000080: 6e99 f4be ec8a 67bd b106 513d 23da 3dbf
00000090: 399f 79be f7ba c83d be52 6ebf a81c dabe
000000a0: 189d f6bc dc87 f5be 4030 00bf 3cb9 173f
000000b0: 138e f9be 23f6 243f 0c14 83be db5e 0b3f
000000c0: 0cdf 53bf cfde acbe d7aa 1ebd 060a a0be
000000d0: 8b8a 76bd ca85 d2bd 9ab2 84bf ffe1 f63d
000000e0: db82 f83e 3955 85be b61e 0bbf 3f5d 11bf
000000f0: e1c7 1fbf 2946 d2be 1cc3 9a3e a82c d03e
00000100: 52b6 2d3f 5669 ce3e 9c26 053f dcb5 473f
00000110: 4b17 d9bd 1426 c63e 6226 1fbe ccf2 113f
00000120: 5cb6 77be 8a09 c63e 4827 133f 0b63 813e
00000130: baff babe f9a3 063e 8142 1cbf 384c 1b3d
00000140: 384d c9be 9be4 ddbe 43dd b83d 5855 95bc
00000150: ea88 e6bd 6796 3f3e f377 10bf 6763 98be
00000160: 101e 233f 49d7 52be 93a9 d8be 1f00 70bf
00000170: e417 883e 37a2 583f ddd4 7c3e f94c 003f
00000180: e5b9 babe 03f8 56be 57c9 b83e 1b1e 08bf
00000190: 39c0 02be 9207 8d3b 5f82 49be 788f 32bf
000001a0: 34f3 363e 2dfd f4be f55b 30bf eb7b 44be
000001b0: f645 dfbe 1c27 4cbf f82c bebe 3f45 33bf
000001c0: f981 35bf 2af0 1abf bf04 f33e cb3d 47be
000001d0: 7f6b e9be e0a3 6dbe 82d0 d83e e37f 843e
000001e0: 67df 8ebe ffe7 913f 31ec 1d3f 6d70 83bf
000001f0: 1e60 95be ba82 d1be 2d6d 10be 499b 123f

set_to_set.2.weight f4 [128, 128]
0.053779356 0.28368586 -0.23958555 -0.061546043 -0.01965229 -0.2419974 -0.090618454 0.009057206
0.023591487 -0.08562527 -0.025026694 -0.28801715 -0.1321075 0.22746348 0.10497611 -0.16924986
-0.07356177 0.23614188 -0.19134776 -0.23905863 0.0014548308 0.04809052 -0.0154262 -0.34507054
0.0146944625 -0.33383512 -0.010107998 -0.2270696 -0.08427343 0.26848322 0.05004458 -0.004350794
0.22833012 0.25018284 0.13038188 -0.080462664 0.20215386 0.020198036 -0.08369544 -0.26438728
-0.023452498 -0.0067842496 -0.06755919 0.027571728 -0.016739778 -0.17375782 -0.31999722 -0.13968314
0.094447725 0.018098002 -0.011591759 -0.03633623 0.2242536 0.03868431 0.0027498049 -0.0015225611
0.051522236 0.117818885 -0.048865676 0.06436453 0.12678397 0.13784853 -0.17084272 -0.1229559
-0.011363912 -0.19206141 -0.13310266 0.0031089643 0.075732484 0.19251072 -0.29761004 -0.02019294
-0.35992458 0.025561392 -0.15748426 0.20473498 0.11265094 -0.0971882 -0.009702038 -0.19846517
-0.1492665 0.19022195 -0.3634411 0.18187083 -0.050732225 0.09929896 -0.25940612 0.29227144
0.07452652 -0.053958334 0.16053592 0.00958628 -0.18651173 -0.25864422 0.032626923 0.023319034
-0.05456874 0.007208719 -0.070897594 -0.0210979 -0.22028919 0.21587722 -0.096267246 -0.09154401
-0.011507711 -0.12419576 -0.025753887 0.0149392765 0.04229828 -0.08906092 0.2214876 -0.018124023
0.2213747 -0.30567348 -0.105641924 -0.037178338 -0.46061727 0.12927133 0.056021255 -0.11244511
0.08568887 0.085203595 -0.02741404 -0.10341202 0.11031381 0.45425195 -0.33382303 -0.10003656
0.18643393 0.09617943 -0.214586 0.045366384 0.0024366518 -0.25023657 -0.024646847 -0.12162334
-0.09475092 -0.04966986 -0.036851816 -0.06880441 -0.03556704 0.114601225 -0.10519609 -0.05657535
-0.053374846 0.19562446 0.32521316 -0.18484361 0.10354897 -0.06451934 0.2521925 -0.16969192
-0.0014600588 -0.25414282 -0.010903204 -0.12505321 0.1360548 0.07324645 -0.00090959034 -0.08902807
0.15027016 -0.030096667 0.06513301 0.06538311 0.1239414 -0.023585698 0.059866454 -0.040829062
0.020127539 0.13334344 0.0217726 0.094165206 0.05169104 0.03623483 -0.11830921 -0.07281835
0.051503196 0.051450197 0.28430766 -0.052829057 0.32140455 0.04271347 0.045110527 0.048480995
0.13580193 -0.24721447 0.016657306 0.0017589391 -0.11680612 0.032316204 -0.052186094 0.057469208
-0.023313463 -0.1492708 -0.07778355 -0.043756895 -0.061530847 -0.18057133 0.092792876 -0.008541058
-0.0033125167 -0.041502077 -0.025352541 0.0310394 -0.08133672 -0.1287771 -0.020129206 0.133876
0.035894625 -0.0007776465 0.08613163 -0.18008693 0.03986751 0.117898695 0.068624124 -0.019808684
0.08481397 0.051969483 -0.0582363 0.034102064 -0.08765722 -0.115891226 0.037193056 0.08261417
-0.05091247 0.041842345 -0.02895613 -0.11668795 -0.014206431 0.05127808 0.06325158 -0.021876158
-0.26062787 -0.012867983 -0.059417438 0.006585315 -0.04174163 0.07711186 0.120085664 0.05691817
-0.042291638 -0.10520205 0.0051654927 -0.0024004348 0.05536797 0.26957026 0.0053775087 -0.19789732
0.047679186 -0.056735076 -0.15856937 0.130363 -0.16564426 0.20058356 -0.011231029 -0.014071742
00000000: be47 5c3d 463f 913e ea55 75be b417 7cbd
00000010: d7fd a0bc 2bce 77be 2b96 b9bd ad64 143c
00000020: ef42 c13c 4d5c afbd c804 cdbc fc76 93be
00000030: 3047 07be 30ec 683e b7fd d63d d64f 2dbe
00000040: 8ea7 96bd 2dcf 713e abf0 43be c9cb 74be
00000050: 05b0 be3a 91fa 443d 2cbe 7cbc 16ad b0be
00000060: 0bc1 703c 70ec aabe 049c 25bc ef84 68be
00000070: 8c97 acbd a276 893e 8cfb 4c3d 1b91 8ebb
00000080: 5fcf 693e f717 803e d482 053e 9cc9 a4bd
00000090: 6c01 4f3e 5a76 a53c 8468 abbd c55d 87be
000000a0: 741f c0bc 694e debb 795c 8abd 1bde e13c
000000b0: dc21 89bc 92ed 31be add6 a3be 1909 0fbe
000000c0: cf6d c13d 4342 943c 5ceb 3dbc 4cd5 14bd
000000d0: bca2 653e 7073 1e3d 1236 343b ac90 c7ba
000000e0: fb08 533d 074b f13d 6027 48bd 8dd1 833d
000000f0: a8d3 013e 2a28 0d3e 65f1 2ebe 4ed0 fbbd
00000100: b42f 3abc bfab 44be 104c 08be c4bf 4b3b
00000110: a219 9b3d 8821 453e 5860 98be aa6b a5bc
00000120: 0948 b8be 2066 d13c 8e43 21be 0ca6 513e
00000130: 89b5 e63d 9b0a c7bd 4cf5 1ebc 743a 4bbe
00000140: 51d9 18be 8bc9 423e f414 babe 593c 3a3e
00000150: 98cc 4fbd 415d cb3d e1d0 84be 9aa4 953e
00000160: 5ca1 983d 6a03 5dbd 8763 243e c60f 1d3c
00000170: eefc 3ebe 046d 84be cfa3 053d 8f07 bf3c
00000180: 7983 5fbd 1e37 ec3b c232 91bd 81d5 acbc
00000190: 7d93 61be eb0e 5d3e c327 c5bd 6d7b bbbd
000001a0: d78a 3cbc 595a febd d1f9 d2bc dec3 743c
000001b0: f640 2d3d 9265 b6bd a5cd 623e d578 94bc
000001c0: 0db0 623e 3c81 9cbe cb5a d8bd 5048 18bd
000001d0: 07d6 ebbe b45f 043e 8b76 653d 9f49 e6bd
000001e0: a57d af3d 397f ae3d 6993 e0bc aec9 d3bd
000001f0: 35ec e13d b693 e83e daea aabe f8df ccbd
00000200: 89e8 3e3e b9f9 c43d 6fbc 5bbe 1ad2 393d
00000210: 3cb0 1f3b 021f 80be 2fe8 c9bc a815 f9bd
00000220: c50c c2bd a072 4bbd eef1 16bd 54e9 8cbd
00000230: bfae 11bd 0cb4 ea3d 0c71 d7bd 8ebb 67bd
00000240: 959f 5abd c751 483e 5782 a63e a547 3dbe
00000250: 7b11 d43d b722 84bd 601f 813e b8c3 2dbe
00000260: 725f bfba 021f 82be 5aa3 32bc f30d 00be
00000270: f351 0b3e 3c02 963d 9371 6eba 5954 b6bd
00000280: 6ce0 193e 498d f6bc 7564 853d 94e7 853d
00000290: fdd4 fd3d cb36 c1bc 8736 753d 603c 27bd
000002a0: 82e2 a43c 2f8b 083e 745c b23c b0d9 c03d
000002b0: fcb9 533d f96a 143d 194c f2bd c921 95bd
000002c0: 04f5 523d 71bd 523d c690 913e 4863 58bd
000002d0: 238f a43e 52f4 2e3d d1c5 383d 0294 463d
000002e0: a90f 0b3e ca25 7dbe e774 883c 348c e63a
000002f0: 0c38 efbd ff5d 043d 16c1 55bd d564 6b3d
00000300: e0fb bebc 72da 18be fb4c 9fbd 6e3a 33bd
00000310: c507 7cbd b1e7 38be 310a be3d cbef 0bbc
00000320: cf16 59bb 15fe 29bd 22b0 cfbc 5746 fe3c
00000330: de93 a6bd 25de 03be 01e6 a4bc ca16 093e
00000340: 3e06 133d f9da 4bba c865 b03d b568 38be
00000350: 1d4c 233d df74 f13d ce8a 8c3d d245 a2bc
00000360: f2b2 ad3d f4dd 543d 3089 6ebd 9bae 0b3d
00000370: a185 b3bd 6158 edbd bf57 183d 9e31 a93d
00000380: 9889 50bd e162 2b3d 6835 edbc 18fa eebd
00000390: 17c2 68bc f708 523d 0b8a 813d a135 b3bc
000003a0: 0471 85be 3cd4 52bc b35f 73bd a0c9 d73b
000003b0: 45f9 2abd d3ec 9d3d 79ef f53d 0723 693d
000003c0: ff39 2dbd 2c74 d7bd 4b43 a93b 9d50 1dbb
000003d0: 86c9 623d 1d05 8a3e d035 b03b 98a5 4abe
000003e0: 404b 433d 0a63 68bd 0260 22be e17d 053e
000003f0: a69e 29be c765 4d3e 5a02 38bc 2a8d 66bc

set_to_set.2.bias f4 [128]
-0.101009436 -0.4230613 0.06696778 0.29349655 0.19186378 -0.49797156 -0.29177266 0.28051612
-0.1510588 0.31067452 -0.061126843 0.13874231 0.06305245 0.34655762 0.33758888 0.18249066
0.32819566 0.08866741 -0.1799597 -0.053941928 0.0144864945 0.46814397 0.5525022 0.45973286
-0.18570425 -0.18200915 -0.41674837 0.046615273 0.17343393 0.24902833 -0.21116385 -0.04211009
-0.15804368 0.022881966 -0.3344633 0.1807797 -0.13743015 0.190165 0.19459625 -0.27528226
0.6674083 -0.07465422 0.044048596 -0.35088322 0.17487901 0.20442036 0.057612788 0.09232563
-0.30393702 -0.24489655 -0.2124743 -0.034854367 -0.08086112 0.048579287 0.2592048 -0.51866454
-0.15576653 -0.39089432 -0.4151727 0.4172069 -0.10324168 -0.2172546 0.41300273 0.34483463
-0.36999083 0.29632062 0.047843006 0.54347384 -0.473727 0.041572377 0.22801684 -0.3755635
-0.035351586 0.035205483 -0.48268878 -0.17766623 -0.23863252 -0.0683113 0.071109146 0.112308025
-0.08369212 0.020718345 0.16334859 0.21635537 -0.10820504 0.42719474 0.13653463 -0.07380252
0.13190451 0.45619315 0.24443561 -0.087662205 -0.2560482 0.11240634 0.20226751 -0.14593002
-0.04619006 0.07296773 -0.27446455 0.03835901 -0.64432955 -0.09688274 0.22291443 -0.34812176
-0.37996995 -0.29613876 0.21716706 0.6494568 0.204996 -0.43517682 -0.12292031 -0.15424028
0.42472222 -0.16873439 -0.207661 -0.16303875 0.16782375 0.3745675 0.034531746 0.49612153
0.122088775 0.27480537 0.023996757 0.55472404 -0.14845593 -0.0018263868 -0.113547795 0.10679068
00000000: 09de cebd 7e9b d8be 6726 893d 2e45 963e
00000010: f077 443e 21f6 febe 3a63 95be cf9f 8f3e
00000020: 28af 1abe bb10 9f3e 2460 7abd 7712 0e3e
00000030: a521 813d 0070 b13e 73d8 ac3e d5de 3a3e
00000040: 4309 a83e 4297 b53d 5b47 38be 36f2 5cbd
00000050: c358 6d3c 91b0 ef3e c970 0d3f 1b62 eb3e
00000060: 4129 3ebe 9b60 3abe 0b60 d5be a8ef 3e3d
00000070: aa98 313e 4801 7f3e 563b 58be a17b 2cbd
00000080: 34d6 21be f672 bb3c c63e abbe 501e 393e
00000090: 7dba 0cbe 9dba 423e 3d44 473e ccf1 8cbe
000000a0: 45db 2a3f 50e4 98bd 4d6c 343d f7a6 b3be
000000b0: 7c13 333e 9253 513e 63fb 6b3d 3815 bd3d
000000c0: a29d 9bbe 29c6 7abe dd92 59be 74c3 0ebd
000000d0: 849a a5bd 13fb 463d 7eb6 843e 33c7 04bf
000000e0: 4381 1fbe 4d23 c8be 8491 d4be 259c d53e
000000f0: 6070 d3bd fd77 5ebe 1875 d33e 2a8e b03e
00000100: 706f bdbe 56b7 973e 07f7 433d 1a21 0b3f
00000110: 588c f2be cc47 2a3d 3f7d 693e dc49 c0be
00000120: d3cc 10bd a033 103d fc22 f7be 23ee 35be
00000130: 155c 74be cbe6 8bbd aca1 913d c001 e63d
00000140: c666 abbd 85b9 a93c da44 273e 438c 5d3e
00000150: 9b9a ddbd 45b9 da3e bccf 0b3e c725 97bd
00000160: fa11 073e 2692 e93e 544d 7a3e 3e88 b3bd
00000170: c018 83be 4c35 e63d 371f 4f3e ae6e 15be
00000180: ca31 3dbd 1b70 953d 9e86 8cbe 561e 1d3d
00000190: c8f2 24bf 756a c6bd ae43 643e 043d b2be
000001a0: 6c8b c2be 809f 97be 0b61 5e3e cd42 263f
000001b0: 79ea 513e 7fcf debe a5bd fbbd 2af1 1dbe
000001c0: 3175 d93e b5c8 2cbe 16a5 54be a1f3 26be
000001d0: fdd9 2b3e 50c7 bf3e 2971 0d3d a403 fe3e
000001e0: ae09 fa3d 4ab3 8c3e d994 c43c 6502 0e3f
000001f0: d504 18be 5f63 efba bf8b e8bd 12b5 da3d

edge_classifier.0.weight f4 [128, 256]
-0.07744918 0.051771775 0.14883366 -0.03970801 -0.038738873 0.16783771 0.06709014 -0.09816456
-0.011119124 0.0041070157 -0.19765702 0.033237416 0.13958696 -0.10746501 -0.04804777 0.08655385
0.07867945 -0.07676909 -0.13321261 -0.0020629002 -0.01662783 -0.05237102 -0.17219643 0.09074339
-0.028515086 -0.281949 0.048829023 -0.11862777 -0.038394175 -0.082521014 -0.14756797 -0.06859081
-0.0017398588 0.019569714 -0.19199875 0.07972209 0.055435546 -0.03255686 0.03645483 0.0743407
-0.19844596 -0.12183737 -0.09276726 0.106602974 -0.054226756 -0.056412484 0.008233604 -0.039409865
0.0075938986 0.073732965 0.017291328 0.020020096 0.039993007 0.02525068 0.11813148 -0.07753372
-0.020838615 -0.002712972 0.11235264 -0.0065401886 0.013044188 0.09068115 0.0066789635 -0.1445139
0.09006618 0.012154407 -0.01678264 0.046870645 0.20756945 -0.013614718 0.060712673 0.11774341
-0.026310587 0.0012922827 0.28630635 0.050641112 0.23448439 0.17353679 0.16638264 -0.17738147
0.06684227 0.05785196 0.05425231 -0.15795802 0.004205249 -0.053512525 -0.092698455 0.22460097
0.06837923 -0.0036266216 0.10886633 -0.010444445 -0.02024142 0.008924777 -0.132592 -0.033261877
-0.03252601 -0.09346271 -0.03356871 -0.05966111 0.17599204 0.1289163 0.15678984 -0.04354048
-0.008752966 0.17814496 0.108185925 -0.24591386 -0.110089585 -0.123261556 -0.02768941 0.037172
0.074664176 0.020326234 0.12069092 0.011296536 -0.00074957125 -0.07350947 -0.12351519 -0.055205327
-0.058221154 0.014229022 -0.07842143 -0.21396974 0.06263049 0.009532709 -0.06285975 -0.09811835
-0.008326086 -0.045926157 -0.112447895 -0.20239343 -0.22438896 0.13046429 0.16744497 0.054159254
-0.059213836 0.1685965 -0.26953602 0.009241754 -0.027581172 -0.13846005 -0.12118571 0.16335858
-0.0161489 -0.24664126 -0.08287301 -0.18645452 -0.06828111 0.08358036 -0.12033999 0.008324998
0.036324784 -0.15280598 0.07066488 0.06522126 -0.15298223 0.040284738 -0.098104574 -0.029769866
0.08831737 0.10812819 -0.2306796 0.019675536 0.09045953 0.15442502 0.053779613 -0.05265924
-0.09514425 -0.06295916 0.040398758 0.11857447 -0.14585184 -0.0861156 -0.14078437 0.033875123
-0.052485753 0.20091154 -0.11441405 0.018903228 0.034378693 -0.044903386 0.2173041 -0.084748246
0.00464058 -0.05114982 0.09498869 -0.05635572 0.16727193 -0.008054702 0.12999853 -0.07687086
0.040132955 0.09593178 -0.15391761 0.08004436 0.093912445 -0.09409734 0.095995344 0.1195373
-0.006761397 0.04644946 -0.032781985 -0.06698883 0.28926402 0.2333012 0.102743275 -0.03349619
-0.06723581 0.044435676 -0.11378097 -0.016386138 -0.013522588 0.15734798 0.012778867 0.21531487
0.021853581 0.0051419456 0.18901657 0.11812437 0.04731664 -0.12555718 -0.15696585 -0.025067478
0.10984192 -0.16315061 -0.12067721 -0.16878255 0.15043731 0.015269447 -0.020164747 -0.010848168
-0.0661383 0.027120031 -0.047642145 -0.09575409 -0.033378232 -0.1746117 -0.04671059 0.000532135
0.122674294 -0.106480464 0.03340622 -0.0051229578 -0.14238232 -0.048637737 -0.044626053 -0.16097717
-0.048166845 0.1152591 -0.030240765 0.06723997 -0.19616868 -0.0060296864 -0.045075856 0.15166867
00000000: ad9d 9ebd a40e 543d da67 183e dea4 22bd
00000010: a7ac 1ebd a6dd 2b3e 8e66 893d 800a c9bd
00000020: fc2c 36bc 2594 863b 9a66 4abe f523 083d
00000030: e2ef 0e3e 9d16 dcbd bdcd 44bd 2543 b13d
00000040: b122 a13d 1d39 9dbd e368 08be b931 07bb
00000050: 1637 88bc ff82 56bd 4354 30be acd7 b93d
00000060: 7898 e9bc 9f5b 90be f100 483d 1ef3 f2bd
00000070: 3643 1dbd c700 a9bd 0f1c 17be 5779 8cbd
00000080: f90b e4ba aa50 a03c 529b 44be 5645 a33d
00000090: 6210 633d 585a 05bd a951 153d f03f 983d
000000a0: 6b35 4bbe df85 f9bd c3fc bdbd a952 da3d
000000b0: e01c 5ebd c710 67bd 3de6 063c 3d6c 21bd
000000c0: 3dd6 f83b 4f01 973d 8ba6 8d3c 2f01 a43c
000000d0: b5cf 233d 84da ce3c ebee f13d 00ca 9ebd
000000e0: beb5 aabc 1ecc 31bb 2419 e63d 144f d6bb
000000f0: 4ab7 553c 0ab7 b93d 35db da3b 74fb 13be
00000100: 9e74 b83d 4723 473c bf7b 89bc 6ffb 3f3d
00000110: 168d 543e 4410 5fbc daad 783d 7523 f13d
00000120: 4d89 d7bc d061 a93a bf96 923e 0e6d 4f3d
00000130: ad1c 703e a1b3 313e 3660 2a3e 7da3 35be
00000140: 9ae4 883d 2df6 6c3d ac37 5e3d bfbf 21be
00000150: 2fcc 893b f32f 5bbd b0d8 bdbd ccfd 653e
00000160: 690a 8c3d 9dac 6dbb 4ff5 de3d 2d1f 2bbc
00000170: 56d1 a5bc 3a39 123c 32c6 07be 9b3d 08bd
00000180: fe39 05bd 6169 bfbd 587f 09bd 355f 74bd
00000190: 4237 343e a202 043e 848d 203e 8157 32bd
000001a0: 9a68 0fbc a26b 363e 9590 dd3d d8d0 7bbe
000001b0: a676 e1bd 8e70 fcbd e7d4 e2bc ab41 183d
000001c0: 88e9 983d 3483 a63c cd2c f73d 1b15 393c
000001d0: e07e 44ba 228c 96bd 88f5 fcbd fb1e 62bd
000001e0: 4e79 6ebd d820 693c 6a9b a0bd e21a 5bbe
000001f0: 6a44 803d 142f 1c3c 9dbc 80bd 46f2 c8bd
00000200: 236a 08bc 111d 3cbd 154b e6bd 3940 4fbe
00000210: 38c6 65be 6e98 053e b276 2b3e 18d6 5d3d
00000220: 358a 72bd 90a4 2c3e a000 8abe ba6a 173c
00000230: e9f1 e1bc 79c8 0dbe 3730 f8bd 7947 273e
00000240: b34a 84bc 878f 7cbe 53b9 a9bd efed 3ebe
00000250: f7d6 8bbd 2e2c ab3d d074 f6bd 9365 083c
00000260: 4cc9 143d 2c79 1cbe c0b8 903d b992 853d
00000270: 60a7 1cbe 9c01 253d 0deb c8bd efdf f3bc
00000280: bddf b43d 5072 dd3d 4637 6cbe 972e a13c
00000290: d942 b93d 9821 1e3e 0348 5c3d 37b1 57bd
000002a0: fdda c2bd bbf0 80bd 2b79 253d 2cd7 f23d
000002b0: 2f5a 15be 605d b0bd c729 10be a4c0 0a3d
000002c0: 4dfb 56bd c1bb 4d3e ea51 eabd f1da 9a3c
000002d0: acd0 0c3d 9dec 37bd f784 5e3e 7d90 adbd
000002e0: 0210 983b 7982 51bd 6e89 c23d 41d5 66bd
000002f0: 5549 2b3e def7 03bc 561e 053e 786e 9dbd
00000300: 7462 243d e277 c43d 949c 1dbe 4cee a33d
00000310: 2b55 c03d 1bb6 c0bd 3599 c43d f9cf f43d
00000320: b58e ddbb ca41 3e3d 6746 06bd 7131 89bd
00000330: 6a1a 943e 83e6 6e3e 116b d23d 4d33 09bd
00000340: eeb2 89bd 2f02 363d ff05 e9bd 393c 86bc
00000350: d88d 5dbc d41f 213e 745e 513c 807b 5c3e
00000360: 4806 b33c c47d a83b 8f8d 413e 31eb f13d
00000370: 18cf 413d 1092 00be a8bb 20be 505a cdbc
00000380: cdf4 e03d f410 27be 9d25 f7bd 55d5 2cbe
00000390: 3d0c 1a3e b42c 7a3c 8a30 a5bc 84bc 31bc
000003a0: 8473 87bd d42a de3c 6924 43bd b81a c4bd
000003b0: 9db7 08bd 69cd 32be 9b53 3fbd fa7e 0b3a
000003c0: a93c fb3d 6e12 dabd f6d4 083d 7cde a7bb
000003d0: accc 11be 5d38 47bd cfc9 36bd 33d7 24be
000003e0: 994a 45bd f70c ec3d 7bbb f7bc 1cb5 893d
000003f0: 71e0 48be ad94 c5bb 76a1 38bd 084f 1b3e

edge_classifier.0.bias f4 [128]
-0.46366906 -0.6335892 -0.2639286 0.5085083 -0.40560052 -0.33512995 -0.25199634 0.5935535
-0.45613283 0.49904743 -0.22396787 -0.149403 -0.16609733 -0.35963985 -0.3396317 0.24126528
-0.27950317 -0.3699398 -0.38192734 0.43055978 0.64939195 -0.31619284 -0.19351271 -0.3931667
-0.21980421 -0.2548385 0.4964338 -1.2794676 -0.23597711 0.37119597 -0.31252033 0.3328459
-0.21931484 -0.31159624 -0.13480483 -0.30458945 -0.33684114 0.33229893 0.47102335 -0.27075496
-0.07872908 -0.22577742 -0.35769695 -0.67453027 -0.33559522 -0.3319358 -0.98819053 -0.34950462
-0.5349984 -0.1613713 0.43265992 -0.41934198 -0.30594522 -0.9664279 -0.18313757 -0.13784286
-1.1674733 -0.3253613 -0.27197188 -0.23385827 -0.22251861 0.073003195 0.46613756 -0.34988415
0.32453987 0.4795685 -0.17988475 -0.17476678 -0.1394487 0.5273445 -0.3639648 0.47967163
-0.3275652 -0.4276818 -0.09011615 -0.18504623 -0.15052389 -0.20502312 0.19958165 -0.12729411
-0.38391787 -1.0629169 -0.08059687 -0.9672309 -0.37951168 -0.3868516 -1.0590483 -0.533786
0.48871443 -1.0253649 0.5051475 0.5651476 0.46681195 -0.27436128 -0.2083401 -0.16753764
-0.28145665 -0.31562138 -0.55082846 -0.7476751 -0.49629343 -0.40871438 -0.3257308 -0.5563857
0.22948791 -1.0186851 -0.33751616 0.4798829 0.3830749 -0.18584971 0.5050878 -0.22307423
-0.32834753 -0.3163719 -0.1504682 -0.26751044 -0.42324468 -0.25901774 -0.31373075 -0.3457472
-0.33763728 -0.24730653 -0.5532887 -0.42955783 -0.42668164 0.6225837 -1.1355081 -0.4000722
00000000: 0866 edbe e732 22bf a621 87be 9a2d 023f
00000010: dfaa cfbe 2796 abbe aa05 81be 1ff3 173f
00000020: 3e8a e9be 2583 ff3e d557 65be 1afd 18be
00000030: 6b15 2abe b722 b8be 35e4 adbe 3f0e 773e
00000040: 0a1b 8fbe c068 bdbe fb8b c3be 5572 dc3e
00000050: 8d3e 263f 07e4 a1be 3228 46be 254d c9be
00000060: 5b14 61be 317a 82be 922c fe3e 98c5 a3bf
00000070: fca3 71be 660d be3e aa02 a0be c76a aa3e
00000080: 1294 60be 8b89 9fbe 470a 0abe 26f3 9bbe
00000090: 7176 acbe 1623 aa3e f929 f13e 65a0 8abe
000000a0: b63c a1bd 3232 67be 0e24 b7be 04ae 2cbf
000000b0: 23d3 abbe 7df3 a9be 0efa 7cbf 45f2 b2be
000000c0: a8f5 08bf 853e 25be 9a85 dd3e feb3 d6be
000000d0: daa4 9cbe d267 77bf 6a88 3bbe ae26 0dbe
000000e0: c46f 95bf c295 a6be e63f 8bbe 8b78 6fbe
000000f0: ebdb 63be b382 953d 95a9 ee3e 0424 b3be
00000100: 172a a63e 018a f53e b533 38be 10f6 32be
00000110: a4cb 0ebe 0d00 073f 9859 babe 8597 f53e
00000120: a0b6 a7be 1cf9 dabe d18e b8bd c27c 3dbe
00000130: ef22 1abe 95f1 51be 225f 4c3e 6359 02be
00000140: e290 c4be a90d 88bf f90f a5bd 729c 77bf
00000150: 5b4f c2be 6a11 c6be e58e 87bf 33a6 08bf
00000160: c738 fa3e 283f 83bf 5951 013f 83ad 103f
00000170: fa01 ef3e 1579 8cbe 1b57 55be fd8e 2bbe
00000180: 161b 90be 2099 a1be 1803 0dbf a367 3fbf
00000190: 2c1a febe 0343 d1be 30c6 a6be 4b6f 0ebf
000001a0: e1fe 6a3e 4664 82bf ebce acbe 36b3 f53e
000001b0: 6522 c43e 634f 3ebe 6f4d 013f 926d 64be
000001c0: 2b1d a8be 7ffb a1be 5614 1abe 21f7 88be
000001d0: 87b3 d8be f99d 84be 51a1 a0be c705 b1be
000001e0: cbde acbe ec3d 7dbe 54a4 0dbf 01ef dbbe
000001f0: 0476 dabe a561 1f3f 5458 91bf 43d6 ccbe

edge_classifier.2.weight f4 [1, 128]
0.083438374 0.12704143 -0.08654073 0.08575619 -0.070400335 -0.017943872 -0.06445886 0.05057576
-0.10240456 0.042015173 -0.09207906 0.12310058 -0.08935944 -0.120017685 -0.06428402 0.03699475
-0.06698929 -0.10126514 -0.029279789 0.07642101 0.0323311 -0.053653907 -0.04418939 -0.15762764
-0.07246581 -0.08127907 0.041347794 0.12275354 0.0010628371 0.0003070216 -0.034280572 0.005515508
-0.073122054 -0.11354695 -0.07156258 -0.043376714 -0.014354318 0.052240733 0.045162212 -0.13360332
0.12170049 0.11866034 -0.1064793 0.11605821 0.10904812 -0.04101057 0.11571761 -0.099564165
0.13913666 0.12599757 0.02506241 -0.09965246 -0.10103461 0.12632306 -0.029001558 -0.112433426
0.09247465 -0.0038369047 0.15819292 0.004538832 -0.103540555 0.07357915 0.03615395 -0.08478847
0.0005204309 0.05847687 -0.0702701 -0.06857768 -0.10415619 0.0663204 -0.042668138 0.10696861
-0.012391362 0.1387144 -0.08040908 -0.082930885 -0.09277563 -0.049327385 0.009558239 -0.13106863
-0.11296118 0.07816311 -0.0010655035 0.17116793 -0.08617482 -0.13760579 0.089121446 -0.1148535
0.030364715 0.16230296 0.089122444 0.049542803 0.075434044 -0.051556006 -0.055951703 -0.0115552535
-0.058955867 -0.01297464 -0.08792802 0.111443244 0.10294466 -0.04465484 0.074409865 0.119689316
0.09948477 0.07433709 -0.08025937 0.02274535 0.045089018 -0.09805757 0.077686355 -0.14162146
-0.045456063 -0.11444818 -0.14799134 -0.07422762 -0.11435557 -0.03915794 -0.029492633 -0.06882457
-0.09866414 -0.08739082 0.09831109 -0.10908327 -0.07395527 0.06645341 0.12739128 -0.12084074
00000000: bde1 aa3d 2617 023e 443c b1bd f1a0 af3d
00000010: 0d2e 90bd 07ff 92bc 0203 84bd 8728 4f3d
00000020: 7bb9 d1bd 1a18 2c3d f293 bcbd 281c fc3d
00000030: 1502 b7bd d5cb f5bd 57a7 83bd cf87 173d
00000040: ae31 89bd 1964 cfbd 2bdc efbc 9e82 9c3d
00000050: 9e6d 043d 33c4 5bbd efff 34bd 2469 21be
00000060: f468 94bd a475 a6bd 4e5c 293d 3566 fb3d
00000070: e54e 8b3a bef7 a039 c969 0cbd 6fbb b43b
00000080: 04c1 95bd 4e8b e8bd 678f 92bd c8ab 31bd
00000090: 602e 6bbc 61fa 553d 03fc 383d 4fcf 08be
000000a0: 1b3e f93d 3104 f33d d211 dabd edaf ed3d
000000b0: 9f54 df3d b3fa 27bd 5bfd ec3d 4ce8 cbbd
000000c0: d779 0e3e 8205 013e af4f cd3c 9716 ccbd
000000d0: 3ceb cebd d55a 013e ad94 edbc 7f43 e6bd
000000e0: 5963 bd3d 9474 7bbb 53fd 213e 7cba 943b
000000f0: 120d d4bd aab0 963d 2a16 143d 94a5 adbd
00000100: 876d 083a 7185 6f3d c5e9 8fbd 7472 8cbd
00000110: d74f d5bd fdd2 873d c9c4 2ebd 5c12 db3d
00000120: 2405 4bbc 260b 0e3e 84ad a4bd abd7 a9bd
00000130: 2601 bebd 830b 4abd 299a 1c3c db36 06be
00000140: 3158 e7bd fb13 a03d 5da8 8bba a546 2f3e
00000150: 6d7c b0bd 88e8 0cbe 4e85 b63d 5038 ebbd
00000160: 6cbf f83c bf32 263e d485 b63d 65ed 4a3d
00000170: 2a7d 9a3d 642c 53bd 9d2d 65bd 3f52 3dbc
00000180: b57b 71bd 9693 54bc 9b13 b4bd 5b3c e43d
00000190: a6d4 d23d fee7 36bd 3364 983d ac1f f53d
000001a0: acbe cb3d 0b3e 983d 065f a4bd 7554 ba3c
000001b0: 43af 383d 68d2 c8bd 061a 9f3d 3705 11be
000001c0: 2330 3abd cf63 eabd 0b8b 17be a704 98bd
000001d0: 4133 eabd 1364 20bd 899a f1bc e5f3 8cbd
000001e0: 6d10 cabd f5f9 b2bd 5357 c93d 0d67 dfbd
000001f0: dc75 97bd ba18 883d dc72 023e 5a7b f7bd
